<?xml version="1.0" ?>
<net name="saved_model" version="10">
	<layers>
		<layer id="0" name="input_1" type="Parameter" version="opset1">
			<data element_type="f32" shape="1, 3, 416, 416"/>
			<output>
				<port id="0" names="Func/StatefulPartitionedCall/input/_0:0,input_1:0" precision="FP32">
					<dim>1</dim>
					<dim>3</dim>
					<dim>416</dim>
					<dim>416</dim>
				</port>
			</output>
		</layer>
		<layer id="1" name="1119417674" type="Const" version="opset1">
			<data element_type="i64" offset="0" shape="4" size="32"/>
			<output>
				<port id="0" precision="I64">
					<dim>4</dim>
				</port>
			</output>
		</layer>
		<layer id="2" name="1120017623" type="Const" version="opset1">
			<data element_type="i64" offset="32" shape="4" size="32"/>
			<output>
				<port id="0" precision="I64">
					<dim>4</dim>
				</port>
			</output>
		</layer>
		<layer id="3" name="Constant_7" type="Const" version="opset1">
			<data element_type="f32" offset="64" shape="" size="4"/>
			<output>
				<port id="0" precision="FP32"/>
			</output>
		</layer>
		<layer id="4" name="StatefulPartitionedCall/functional_1/zero_padding2d/Pad" type="Pad" version="opset1">
			<data pad_mode="constant"/>
			<input>
				<port id="0" precision="FP32">
					<dim>1</dim>
					<dim>3</dim>
					<dim>416</dim>
					<dim>416</dim>
				</port>
				<port id="1" precision="I64">
					<dim>4</dim>
				</port>
				<port id="2" precision="I64">
					<dim>4</dim>
				</port>
				<port id="3" precision="FP32"/>
			</input>
			<output>
				<port id="4" names="StatefulPartitionedCall/functional_1/zero_padding2d/Pad:0" precision="FP32">
					<dim>1</dim>
					<dim>3</dim>
					<dim>417</dim>
					<dim>417</dim>
				</port>
			</output>
		</layer>
		<layer id="5" name="StatefulPartitionedCall/functional_1/batch_normalization/FusedBatchNormV3/mean/Fused_Mul__copy" type="Const" version="opset1">
			<data element_type="f32" offset="68" shape="32, 3, 3, 3" size="3456"/>
			<output>
				<port id="0" names="StatefulPartitionedCall/functional_1/conv2d/Conv2D/ReadVariableOp:0" precision="FP32">
					<dim>32</dim>
					<dim>3</dim>
					<dim>3</dim>
					<dim>3</dim>
				</port>
			</output>
		</layer>
		<layer id="6" name="StatefulPartitionedCall/functional_1/conv2d/Conv2D" type="Convolution" version="opset1">
			<data auto_pad="valid" dilations="1, 1" pads_begin="0, 0" pads_end="0, 0" strides="2, 2"/>
			<input>
				<port id="0" precision="FP32">
					<dim>1</dim>
					<dim>3</dim>
					<dim>417</dim>
					<dim>417</dim>
				</port>
				<port id="1" precision="FP32">
					<dim>32</dim>
					<dim>3</dim>
					<dim>3</dim>
					<dim>3</dim>
				</port>
			</input>
			<output>
				<port id="2" precision="FP32">
					<dim>1</dim>
					<dim>32</dim>
					<dim>208</dim>
					<dim>208</dim>
				</port>
			</output>
		</layer>
		<layer id="7" name="data_add_8154" type="Const" version="opset1">
			<data element_type="f32" offset="3524" shape="1, 32, 1, 1" size="128"/>
			<output>
				<port id="0" precision="FP32">
					<dim>1</dim>
					<dim>32</dim>
					<dim>1</dim>
					<dim>1</dim>
				</port>
			</output>
		</layer>
		<layer id="8" name="StatefulPartitionedCall/functional_1/batch_normalization/FusedBatchNormV3/variance/Fused_Add_" type="Add" version="opset1">
			<data auto_broadcast="numpy"/>
			<input>
				<port id="0" precision="FP32">
					<dim>1</dim>
					<dim>32</dim>
					<dim>208</dim>
					<dim>208</dim>
				</port>
				<port id="1" precision="FP32">
					<dim>1</dim>
					<dim>32</dim>
					<dim>1</dim>
					<dim>1</dim>
				</port>
			</input>
			<output>
				<port id="2" names="StatefulPartitionedCall/functional_1/batch_normalization/FusedBatchNormV3:0" precision="FP32">
					<dim>1</dim>
					<dim>32</dim>
					<dim>208</dim>
					<dim>208</dim>
				</port>
			</output>
		</layer>
		<layer id="9" name="StatefulPartitionedCall/functional_1/tf_op_layer_LeakyRelu/LeakyRelu/weights1235317602" type="Const" version="opset1">
			<data element_type="f32" offset="3652" shape="1" size="4"/>
			<output>
				<port id="0" precision="FP32">
					<dim>1</dim>
				</port>
			</output>
		</layer>
		<layer id="10" name="StatefulPartitionedCall/functional_1/tf_op_layer_LeakyRelu/LeakyRelu" type="PReLU" version="opset1">
			<input>
				<port id="0" precision="FP32">
					<dim>1</dim>
					<dim>32</dim>
					<dim>208</dim>
					<dim>208</dim>
				</port>
				<port id="1" precision="FP32">
					<dim>1</dim>
				</port>
			</input>
			<output>
				<port id="2" names="StatefulPartitionedCall/functional_1/tf_op_layer_LeakyRelu/LeakyRelu:0" precision="FP32">
					<dim>1</dim>
					<dim>32</dim>
					<dim>208</dim>
					<dim>208</dim>
				</port>
			</output>
		</layer>
		<layer id="11" name="1120617518" type="Const" version="opset1">
			<data element_type="i64" offset="0" shape="4" size="32"/>
			<output>
				<port id="0" precision="I64">
					<dim>4</dim>
				</port>
			</output>
		</layer>
		<layer id="12" name="1121217653" type="Const" version="opset1">
			<data element_type="i64" offset="32" shape="4" size="32"/>
			<output>
				<port id="0" precision="I64">
					<dim>4</dim>
				</port>
			</output>
		</layer>
		<layer id="13" name="Constant_26" type="Const" version="opset1">
			<data element_type="f32" offset="64" shape="" size="4"/>
			<output>
				<port id="0" precision="FP32"/>
			</output>
		</layer>
		<layer id="14" name="StatefulPartitionedCall/functional_1/zero_padding2d_1/Pad" type="Pad" version="opset1">
			<data pad_mode="constant"/>
			<input>
				<port id="0" precision="FP32">
					<dim>1</dim>
					<dim>32</dim>
					<dim>208</dim>
					<dim>208</dim>
				</port>
				<port id="1" precision="I64">
					<dim>4</dim>
				</port>
				<port id="2" precision="I64">
					<dim>4</dim>
				</port>
				<port id="3" precision="FP32"/>
			</input>
			<output>
				<port id="4" names="StatefulPartitionedCall/functional_1/zero_padding2d_1/Pad:0" precision="FP32">
					<dim>1</dim>
					<dim>32</dim>
					<dim>209</dim>
					<dim>209</dim>
				</port>
			</output>
		</layer>
		<layer id="15" name="StatefulPartitionedCall/functional_1/batch_normalization_1/FusedBatchNormV3/mean/Fused_Mul__copy" type="Const" version="opset1">
			<data element_type="f32" offset="3656" shape="64, 32, 3, 3" size="73728"/>
			<output>
				<port id="0" names="StatefulPartitionedCall/functional_1/conv2d_1/Conv2D/ReadVariableOp:0" precision="FP32">
					<dim>64</dim>
					<dim>32</dim>
					<dim>3</dim>
					<dim>3</dim>
				</port>
			</output>
		</layer>
		<layer id="16" name="StatefulPartitionedCall/functional_1/conv2d_1/Conv2D" type="Convolution" version="opset1">
			<data auto_pad="valid" dilations="1, 1" pads_begin="0, 0" pads_end="0, 0" strides="2, 2"/>
			<input>
				<port id="0" precision="FP32">
					<dim>1</dim>
					<dim>32</dim>
					<dim>209</dim>
					<dim>209</dim>
				</port>
				<port id="1" precision="FP32">
					<dim>64</dim>
					<dim>32</dim>
					<dim>3</dim>
					<dim>3</dim>
				</port>
			</input>
			<output>
				<port id="2" precision="FP32">
					<dim>1</dim>
					<dim>64</dim>
					<dim>104</dim>
					<dim>104</dim>
				</port>
			</output>
		</layer>
		<layer id="17" name="data_add_81578162" type="Const" version="opset1">
			<data element_type="f32" offset="77384" shape="1, 64, 1, 1" size="256"/>
			<output>
				<port id="0" precision="FP32">
					<dim>1</dim>
					<dim>64</dim>
					<dim>1</dim>
					<dim>1</dim>
				</port>
			</output>
		</layer>
		<layer id="18" name="StatefulPartitionedCall/functional_1/batch_normalization_1/FusedBatchNormV3/variance/Fused_Add_" type="Add" version="opset1">
			<data auto_broadcast="numpy"/>
			<input>
				<port id="0" precision="FP32">
					<dim>1</dim>
					<dim>64</dim>
					<dim>104</dim>
					<dim>104</dim>
				</port>
				<port id="1" precision="FP32">
					<dim>1</dim>
					<dim>64</dim>
					<dim>1</dim>
					<dim>1</dim>
				</port>
			</input>
			<output>
				<port id="2" names="StatefulPartitionedCall/functional_1/batch_normalization_1/FusedBatchNormV3:0" precision="FP32">
					<dim>1</dim>
					<dim>64</dim>
					<dim>104</dim>
					<dim>104</dim>
				</port>
			</output>
		</layer>
		<layer id="19" name="StatefulPartitionedCall/functional_1/tf_op_layer_LeakyRelu_1/LeakyRelu_1/weights1237717539" type="Const" version="opset1">
			<data element_type="f32" offset="3652" shape="1" size="4"/>
			<output>
				<port id="0" precision="FP32">
					<dim>1</dim>
				</port>
			</output>
		</layer>
		<layer id="20" name="StatefulPartitionedCall/functional_1/tf_op_layer_LeakyRelu_1/LeakyRelu_1" type="PReLU" version="opset1">
			<input>
				<port id="0" precision="FP32">
					<dim>1</dim>
					<dim>64</dim>
					<dim>104</dim>
					<dim>104</dim>
				</port>
				<port id="1" precision="FP32">
					<dim>1</dim>
				</port>
			</input>
			<output>
				<port id="2" names="StatefulPartitionedCall/functional_1/tf_op_layer_LeakyRelu_1/LeakyRelu_1:0" precision="FP32">
					<dim>1</dim>
					<dim>64</dim>
					<dim>104</dim>
					<dim>104</dim>
				</port>
			</output>
		</layer>
		<layer id="21" name="StatefulPartitionedCall/functional_1/batch_normalization_2/FusedBatchNormV3/mean/Fused_Mul__copy" type="Const" version="opset1">
			<data element_type="f32" offset="77640" shape="64, 64, 3, 3" size="147456"/>
			<output>
				<port id="0" names="StatefulPartitionedCall/functional_1/conv2d_2/Conv2D/ReadVariableOp:0" precision="FP32">
					<dim>64</dim>
					<dim>64</dim>
					<dim>3</dim>
					<dim>3</dim>
				</port>
			</output>
		</layer>
		<layer id="22" name="StatefulPartitionedCall/functional_1/conv2d_2/Conv2D" type="Convolution" version="opset1">
			<data auto_pad="same_upper" dilations="1, 1" pads_begin="1, 1" pads_end="1, 1" strides="1, 1"/>
			<input>
				<port id="0" precision="FP32">
					<dim>1</dim>
					<dim>64</dim>
					<dim>104</dim>
					<dim>104</dim>
				</port>
				<port id="1" precision="FP32">
					<dim>64</dim>
					<dim>64</dim>
					<dim>3</dim>
					<dim>3</dim>
				</port>
			</input>
			<output>
				<port id="2" precision="FP32">
					<dim>1</dim>
					<dim>64</dim>
					<dim>104</dim>
					<dim>104</dim>
				</port>
			</output>
		</layer>
		<layer id="23" name="data_add_81658170" type="Const" version="opset1">
			<data element_type="f32" offset="225096" shape="1, 64, 1, 1" size="256"/>
			<output>
				<port id="0" precision="FP32">
					<dim>1</dim>
					<dim>64</dim>
					<dim>1</dim>
					<dim>1</dim>
				</port>
			</output>
		</layer>
		<layer id="24" name="StatefulPartitionedCall/functional_1/batch_normalization_2/FusedBatchNormV3/variance/Fused_Add_" type="Add" version="opset1">
			<data auto_broadcast="numpy"/>
			<input>
				<port id="0" precision="FP32">
					<dim>1</dim>
					<dim>64</dim>
					<dim>104</dim>
					<dim>104</dim>
				</port>
				<port id="1" precision="FP32">
					<dim>1</dim>
					<dim>64</dim>
					<dim>1</dim>
					<dim>1</dim>
				</port>
			</input>
			<output>
				<port id="2" names="StatefulPartitionedCall/functional_1/batch_normalization_2/FusedBatchNormV3:0" precision="FP32">
					<dim>1</dim>
					<dim>64</dim>
					<dim>104</dim>
					<dim>104</dim>
				</port>
			</output>
		</layer>
		<layer id="25" name="StatefulPartitionedCall/functional_1/tf_op_layer_LeakyRelu_2/LeakyRelu_2/weights1238117848" type="Const" version="opset1">
			<data element_type="f32" offset="3652" shape="1" size="4"/>
			<output>
				<port id="0" precision="FP32">
					<dim>1</dim>
				</port>
			</output>
		</layer>
		<layer id="26" name="StatefulPartitionedCall/functional_1/tf_op_layer_LeakyRelu_2/LeakyRelu_2" type="PReLU" version="opset1">
			<input>
				<port id="0" precision="FP32">
					<dim>1</dim>
					<dim>64</dim>
					<dim>104</dim>
					<dim>104</dim>
				</port>
				<port id="1" precision="FP32">
					<dim>1</dim>
				</port>
			</input>
			<output>
				<port id="2" names="StatefulPartitionedCall/functional_1/tf_op_layer_LeakyRelu_2/LeakyRelu_2:0" precision="FP32">
					<dim>1</dim>
					<dim>64</dim>
					<dim>104</dim>
					<dim>104</dim>
				</port>
			</output>
		</layer>
		<layer id="27" name="1108617536" type="Const" version="opset1">
			<data element_type="i64" offset="225352" shape="" size="8"/>
			<output>
				<port id="0" precision="I64"/>
			</output>
		</layer>
		<layer id="28" name="StatefulPartitionedCall/functional_1/tf_op_layer_split/split" type="Split" version="opset1">
			<data num_splits="2"/>
			<input>
				<port id="0" precision="FP32">
					<dim>1</dim>
					<dim>64</dim>
					<dim>104</dim>
					<dim>104</dim>
				</port>
				<port id="1" precision="I64"/>
			</input>
			<output>
				<port id="2" precision="FP32">
					<dim>1</dim>
					<dim>32</dim>
					<dim>104</dim>
					<dim>104</dim>
				</port>
				<port id="3" names="StatefulPartitionedCall/functional_1/tf_op_layer_split/split:1" precision="FP32">
					<dim>1</dim>
					<dim>32</dim>
					<dim>104</dim>
					<dim>104</dim>
				</port>
			</output>
		</layer>
		<layer id="29" name="StatefulPartitionedCall/functional_1/batch_normalization_3/FusedBatchNormV3/mean/Fused_Mul__copy" type="Const" version="opset1">
			<data element_type="f32" offset="225360" shape="32, 32, 3, 3" size="36864"/>
			<output>
				<port id="0" names="StatefulPartitionedCall/functional_1/conv2d_3/Conv2D/ReadVariableOp:0" precision="FP32">
					<dim>32</dim>
					<dim>32</dim>
					<dim>3</dim>
					<dim>3</dim>
				</port>
			</output>
		</layer>
		<layer id="30" name="StatefulPartitionedCall/functional_1/conv2d_3/Conv2D" type="Convolution" version="opset1">
			<data auto_pad="same_upper" dilations="1, 1" pads_begin="1, 1" pads_end="1, 1" strides="1, 1"/>
			<input>
				<port id="0" precision="FP32">
					<dim>1</dim>
					<dim>32</dim>
					<dim>104</dim>
					<dim>104</dim>
				</port>
				<port id="1" precision="FP32">
					<dim>32</dim>
					<dim>32</dim>
					<dim>3</dim>
					<dim>3</dim>
				</port>
			</input>
			<output>
				<port id="2" precision="FP32">
					<dim>1</dim>
					<dim>32</dim>
					<dim>104</dim>
					<dim>104</dim>
				</port>
			</output>
		</layer>
		<layer id="31" name="data_add_81738178" type="Const" version="opset1">
			<data element_type="f32" offset="262224" shape="1, 32, 1, 1" size="128"/>
			<output>
				<port id="0" precision="FP32">
					<dim>1</dim>
					<dim>32</dim>
					<dim>1</dim>
					<dim>1</dim>
				</port>
			</output>
		</layer>
		<layer id="32" name="StatefulPartitionedCall/functional_1/batch_normalization_3/FusedBatchNormV3/variance/Fused_Add_" type="Add" version="opset1">
			<data auto_broadcast="numpy"/>
			<input>
				<port id="0" precision="FP32">
					<dim>1</dim>
					<dim>32</dim>
					<dim>104</dim>
					<dim>104</dim>
				</port>
				<port id="1" precision="FP32">
					<dim>1</dim>
					<dim>32</dim>
					<dim>1</dim>
					<dim>1</dim>
				</port>
			</input>
			<output>
				<port id="2" names="StatefulPartitionedCall/functional_1/batch_normalization_3/FusedBatchNormV3:0" precision="FP32">
					<dim>1</dim>
					<dim>32</dim>
					<dim>104</dim>
					<dim>104</dim>
				</port>
			</output>
		</layer>
		<layer id="33" name="StatefulPartitionedCall/functional_1/tf_op_layer_LeakyRelu_3/LeakyRelu_3/weights1234518013" type="Const" version="opset1">
			<data element_type="f32" offset="3652" shape="1" size="4"/>
			<output>
				<port id="0" precision="FP32">
					<dim>1</dim>
				</port>
			</output>
		</layer>
		<layer id="34" name="StatefulPartitionedCall/functional_1/tf_op_layer_LeakyRelu_3/LeakyRelu_3" type="PReLU" version="opset1">
			<input>
				<port id="0" precision="FP32">
					<dim>1</dim>
					<dim>32</dim>
					<dim>104</dim>
					<dim>104</dim>
				</port>
				<port id="1" precision="FP32">
					<dim>1</dim>
				</port>
			</input>
			<output>
				<port id="2" names="StatefulPartitionedCall/functional_1/tf_op_layer_LeakyRelu_3/LeakyRelu_3:0" precision="FP32">
					<dim>1</dim>
					<dim>32</dim>
					<dim>104</dim>
					<dim>104</dim>
				</port>
			</output>
		</layer>
		<layer id="35" name="StatefulPartitionedCall/functional_1/batch_normalization_4/FusedBatchNormV3/mean/Fused_Mul__copy" type="Const" version="opset1">
			<data element_type="f32" offset="262352" shape="32, 32, 3, 3" size="36864"/>
			<output>
				<port id="0" names="StatefulPartitionedCall/functional_1/conv2d_4/Conv2D/ReadVariableOp:0" precision="FP32">
					<dim>32</dim>
					<dim>32</dim>
					<dim>3</dim>
					<dim>3</dim>
				</port>
			</output>
		</layer>
		<layer id="36" name="StatefulPartitionedCall/functional_1/conv2d_4/Conv2D" type="Convolution" version="opset1">
			<data auto_pad="same_upper" dilations="1, 1" pads_begin="1, 1" pads_end="1, 1" strides="1, 1"/>
			<input>
				<port id="0" precision="FP32">
					<dim>1</dim>
					<dim>32</dim>
					<dim>104</dim>
					<dim>104</dim>
				</port>
				<port id="1" precision="FP32">
					<dim>32</dim>
					<dim>32</dim>
					<dim>3</dim>
					<dim>3</dim>
				</port>
			</input>
			<output>
				<port id="2" precision="FP32">
					<dim>1</dim>
					<dim>32</dim>
					<dim>104</dim>
					<dim>104</dim>
				</port>
			</output>
		</layer>
		<layer id="37" name="data_add_81818186" type="Const" version="opset1">
			<data element_type="f32" offset="299216" shape="1, 32, 1, 1" size="128"/>
			<output>
				<port id="0" precision="FP32">
					<dim>1</dim>
					<dim>32</dim>
					<dim>1</dim>
					<dim>1</dim>
				</port>
			</output>
		</layer>
		<layer id="38" name="StatefulPartitionedCall/functional_1/batch_normalization_4/FusedBatchNormV3/variance/Fused_Add_" type="Add" version="opset1">
			<data auto_broadcast="numpy"/>
			<input>
				<port id="0" precision="FP32">
					<dim>1</dim>
					<dim>32</dim>
					<dim>104</dim>
					<dim>104</dim>
				</port>
				<port id="1" precision="FP32">
					<dim>1</dim>
					<dim>32</dim>
					<dim>1</dim>
					<dim>1</dim>
				</port>
			</input>
			<output>
				<port id="2" names="StatefulPartitionedCall/functional_1/batch_normalization_4/FusedBatchNormV3:0" precision="FP32">
					<dim>1</dim>
					<dim>32</dim>
					<dim>104</dim>
					<dim>104</dim>
				</port>
			</output>
		</layer>
		<layer id="39" name="StatefulPartitionedCall/functional_1/tf_op_layer_LeakyRelu_4/LeakyRelu_4/weights1238517992" type="Const" version="opset1">
			<data element_type="f32" offset="3652" shape="1" size="4"/>
			<output>
				<port id="0" precision="FP32">
					<dim>1</dim>
				</port>
			</output>
		</layer>
		<layer id="40" name="StatefulPartitionedCall/functional_1/tf_op_layer_LeakyRelu_4/LeakyRelu_4" type="PReLU" version="opset1">
			<input>
				<port id="0" precision="FP32">
					<dim>1</dim>
					<dim>32</dim>
					<dim>104</dim>
					<dim>104</dim>
				</port>
				<port id="1" precision="FP32">
					<dim>1</dim>
				</port>
			</input>
			<output>
				<port id="2" names="StatefulPartitionedCall/functional_1/tf_op_layer_LeakyRelu_4/LeakyRelu_4:0" precision="FP32">
					<dim>1</dim>
					<dim>32</dim>
					<dim>104</dim>
					<dim>104</dim>
				</port>
			</output>
		</layer>
		<layer id="41" name="StatefulPartitionedCall/functional_1/tf_op_layer_concat/concat" type="Concat" version="opset1">
			<data axis="1"/>
			<input>
				<port id="0" precision="FP32">
					<dim>1</dim>
					<dim>32</dim>
					<dim>104</dim>
					<dim>104</dim>
				</port>
				<port id="1" precision="FP32">
					<dim>1</dim>
					<dim>32</dim>
					<dim>104</dim>
					<dim>104</dim>
				</port>
			</input>
			<output>
				<port id="2" names="StatefulPartitionedCall/functional_1/tf_op_layer_concat/concat:0" precision="FP32">
					<dim>1</dim>
					<dim>64</dim>
					<dim>104</dim>
					<dim>104</dim>
				</port>
			</output>
		</layer>
		<layer id="42" name="StatefulPartitionedCall/functional_1/batch_normalization_5/FusedBatchNormV3/mean/Fused_Mul__copy" type="Const" version="opset1">
			<data element_type="f32" offset="299344" shape="64, 64, 1, 1" size="16384"/>
			<output>
				<port id="0" names="StatefulPartitionedCall/functional_1/conv2d_5/Conv2D/ReadVariableOp:0" precision="FP32">
					<dim>64</dim>
					<dim>64</dim>
					<dim>1</dim>
					<dim>1</dim>
				</port>
			</output>
		</layer>
		<layer id="43" name="StatefulPartitionedCall/functional_1/conv2d_5/Conv2D" type="Convolution" version="opset1">
			<data auto_pad="same_upper" dilations="1, 1" pads_begin="0, 0" pads_end="0, 0" strides="1, 1"/>
			<input>
				<port id="0" precision="FP32">
					<dim>1</dim>
					<dim>64</dim>
					<dim>104</dim>
					<dim>104</dim>
				</port>
				<port id="1" precision="FP32">
					<dim>64</dim>
					<dim>64</dim>
					<dim>1</dim>
					<dim>1</dim>
				</port>
			</input>
			<output>
				<port id="2" precision="FP32">
					<dim>1</dim>
					<dim>64</dim>
					<dim>104</dim>
					<dim>104</dim>
				</port>
			</output>
		</layer>
		<layer id="44" name="data_add_81898194" type="Const" version="opset1">
			<data element_type="f32" offset="315728" shape="1, 64, 1, 1" size="256"/>
			<output>
				<port id="0" precision="FP32">
					<dim>1</dim>
					<dim>64</dim>
					<dim>1</dim>
					<dim>1</dim>
				</port>
			</output>
		</layer>
		<layer id="45" name="StatefulPartitionedCall/functional_1/batch_normalization_5/FusedBatchNormV3/variance/Fused_Add_" type="Add" version="opset1">
			<data auto_broadcast="numpy"/>
			<input>
				<port id="0" precision="FP32">
					<dim>1</dim>
					<dim>64</dim>
					<dim>104</dim>
					<dim>104</dim>
				</port>
				<port id="1" precision="FP32">
					<dim>1</dim>
					<dim>64</dim>
					<dim>1</dim>
					<dim>1</dim>
				</port>
			</input>
			<output>
				<port id="2" names="StatefulPartitionedCall/functional_1/batch_normalization_5/FusedBatchNormV3:0" precision="FP32">
					<dim>1</dim>
					<dim>64</dim>
					<dim>104</dim>
					<dim>104</dim>
				</port>
			</output>
		</layer>
		<layer id="46" name="StatefulPartitionedCall/functional_1/tf_op_layer_LeakyRelu_5/LeakyRelu_5/weights1234917638" type="Const" version="opset1">
			<data element_type="f32" offset="3652" shape="1" size="4"/>
			<output>
				<port id="0" precision="FP32">
					<dim>1</dim>
				</port>
			</output>
		</layer>
		<layer id="47" name="StatefulPartitionedCall/functional_1/tf_op_layer_LeakyRelu_5/LeakyRelu_5" type="PReLU" version="opset1">
			<input>
				<port id="0" precision="FP32">
					<dim>1</dim>
					<dim>64</dim>
					<dim>104</dim>
					<dim>104</dim>
				</port>
				<port id="1" precision="FP32">
					<dim>1</dim>
				</port>
			</input>
			<output>
				<port id="2" names="StatefulPartitionedCall/functional_1/tf_op_layer_LeakyRelu_5/LeakyRelu_5:0" precision="FP32">
					<dim>1</dim>
					<dim>64</dim>
					<dim>104</dim>
					<dim>104</dim>
				</port>
			</output>
		</layer>
		<layer id="48" name="StatefulPartitionedCall/functional_1/tf_op_layer_concat_1/concat_1" type="Concat" version="opset1">
			<data axis="1"/>
			<input>
				<port id="0" precision="FP32">
					<dim>1</dim>
					<dim>64</dim>
					<dim>104</dim>
					<dim>104</dim>
				</port>
				<port id="1" precision="FP32">
					<dim>1</dim>
					<dim>64</dim>
					<dim>104</dim>
					<dim>104</dim>
				</port>
			</input>
			<output>
				<port id="2" names="StatefulPartitionedCall/functional_1/tf_op_layer_concat_1/concat_1:0" precision="FP32">
					<dim>1</dim>
					<dim>128</dim>
					<dim>104</dim>
					<dim>104</dim>
				</port>
			</output>
		</layer>
		<layer id="49" name="StatefulPartitionedCall/functional_1/max_pooling2d/MaxPool" type="MaxPool" version="opset1">
			<data auto_pad="same_upper" kernel="2, 2" pads_begin="0, 0" pads_end="0, 0" rounding_type="floor" strides="2, 2"/>
			<input>
				<port id="0" precision="FP32">
					<dim>1</dim>
					<dim>128</dim>
					<dim>104</dim>
					<dim>104</dim>
				</port>
			</input>
			<output>
				<port id="1" names="StatefulPartitionedCall/functional_1/max_pooling2d/MaxPool:0" precision="FP32">
					<dim>1</dim>
					<dim>128</dim>
					<dim>52</dim>
					<dim>52</dim>
				</port>
			</output>
		</layer>
		<layer id="50" name="StatefulPartitionedCall/functional_1/batch_normalization_6/FusedBatchNormV3/mean/Fused_Mul__copy" type="Const" version="opset1">
			<data element_type="f32" offset="315984" shape="128, 128, 3, 3" size="589824"/>
			<output>
				<port id="0" names="StatefulPartitionedCall/functional_1/conv2d_6/Conv2D/ReadVariableOp:0" precision="FP32">
					<dim>128</dim>
					<dim>128</dim>
					<dim>3</dim>
					<dim>3</dim>
				</port>
			</output>
		</layer>
		<layer id="51" name="StatefulPartitionedCall/functional_1/conv2d_6/Conv2D" type="Convolution" version="opset1">
			<data auto_pad="same_upper" dilations="1, 1" pads_begin="1, 1" pads_end="1, 1" strides="1, 1"/>
			<input>
				<port id="0" precision="FP32">
					<dim>1</dim>
					<dim>128</dim>
					<dim>52</dim>
					<dim>52</dim>
				</port>
				<port id="1" precision="FP32">
					<dim>128</dim>
					<dim>128</dim>
					<dim>3</dim>
					<dim>3</dim>
				</port>
			</input>
			<output>
				<port id="2" precision="FP32">
					<dim>1</dim>
					<dim>128</dim>
					<dim>52</dim>
					<dim>52</dim>
				</port>
			</output>
		</layer>
		<layer id="52" name="data_add_81978202" type="Const" version="opset1">
			<data element_type="f32" offset="905808" shape="1, 128, 1, 1" size="512"/>
			<output>
				<port id="0" precision="FP32">
					<dim>1</dim>
					<dim>128</dim>
					<dim>1</dim>
					<dim>1</dim>
				</port>
			</output>
		</layer>
		<layer id="53" name="StatefulPartitionedCall/functional_1/batch_normalization_6/FusedBatchNormV3/variance/Fused_Add_" type="Add" version="opset1">
			<data auto_broadcast="numpy"/>
			<input>
				<port id="0" precision="FP32">
					<dim>1</dim>
					<dim>128</dim>
					<dim>52</dim>
					<dim>52</dim>
				</port>
				<port id="1" precision="FP32">
					<dim>1</dim>
					<dim>128</dim>
					<dim>1</dim>
					<dim>1</dim>
				</port>
			</input>
			<output>
				<port id="2" names="StatefulPartitionedCall/functional_1/batch_normalization_6/FusedBatchNormV3:0" precision="FP32">
					<dim>1</dim>
					<dim>128</dim>
					<dim>52</dim>
					<dim>52</dim>
				</port>
			</output>
		</layer>
		<layer id="54" name="StatefulPartitionedCall/functional_1/tf_op_layer_LeakyRelu_6/LeakyRelu_6/weights1236117686" type="Const" version="opset1">
			<data element_type="f32" offset="3652" shape="1" size="4"/>
			<output>
				<port id="0" precision="FP32">
					<dim>1</dim>
				</port>
			</output>
		</layer>
		<layer id="55" name="StatefulPartitionedCall/functional_1/tf_op_layer_LeakyRelu_6/LeakyRelu_6" type="PReLU" version="opset1">
			<input>
				<port id="0" precision="FP32">
					<dim>1</dim>
					<dim>128</dim>
					<dim>52</dim>
					<dim>52</dim>
				</port>
				<port id="1" precision="FP32">
					<dim>1</dim>
				</port>
			</input>
			<output>
				<port id="2" names="StatefulPartitionedCall/functional_1/tf_op_layer_LeakyRelu_6/LeakyRelu_6:0" precision="FP32">
					<dim>1</dim>
					<dim>128</dim>
					<dim>52</dim>
					<dim>52</dim>
				</port>
			</output>
		</layer>
		<layer id="56" name="1110818016" type="Const" version="opset1">
			<data element_type="i64" offset="225352" shape="" size="8"/>
			<output>
				<port id="0" precision="I64"/>
			</output>
		</layer>
		<layer id="57" name="StatefulPartitionedCall/functional_1/tf_op_layer_split_1/split_1" type="Split" version="opset1">
			<data num_splits="2"/>
			<input>
				<port id="0" precision="FP32">
					<dim>1</dim>
					<dim>128</dim>
					<dim>52</dim>
					<dim>52</dim>
				</port>
				<port id="1" precision="I64"/>
			</input>
			<output>
				<port id="2" precision="FP32">
					<dim>1</dim>
					<dim>64</dim>
					<dim>52</dim>
					<dim>52</dim>
				</port>
				<port id="3" names="StatefulPartitionedCall/functional_1/tf_op_layer_split_1/split_1:1" precision="FP32">
					<dim>1</dim>
					<dim>64</dim>
					<dim>52</dim>
					<dim>52</dim>
				</port>
			</output>
		</layer>
		<layer id="58" name="StatefulPartitionedCall/functional_1/batch_normalization_7/FusedBatchNormV3/mean/Fused_Mul__copy" type="Const" version="opset1">
			<data element_type="f32" offset="906320" shape="64, 64, 3, 3" size="147456"/>
			<output>
				<port id="0" names="StatefulPartitionedCall/functional_1/conv2d_7/Conv2D/ReadVariableOp:0" precision="FP32">
					<dim>64</dim>
					<dim>64</dim>
					<dim>3</dim>
					<dim>3</dim>
				</port>
			</output>
		</layer>
		<layer id="59" name="StatefulPartitionedCall/functional_1/conv2d_7/Conv2D" type="Convolution" version="opset1">
			<data auto_pad="same_upper" dilations="1, 1" pads_begin="1, 1" pads_end="1, 1" strides="1, 1"/>
			<input>
				<port id="0" precision="FP32">
					<dim>1</dim>
					<dim>64</dim>
					<dim>52</dim>
					<dim>52</dim>
				</port>
				<port id="1" precision="FP32">
					<dim>64</dim>
					<dim>64</dim>
					<dim>3</dim>
					<dim>3</dim>
				</port>
			</input>
			<output>
				<port id="2" precision="FP32">
					<dim>1</dim>
					<dim>64</dim>
					<dim>52</dim>
					<dim>52</dim>
				</port>
			</output>
		</layer>
		<layer id="60" name="data_add_82058210" type="Const" version="opset1">
			<data element_type="f32" offset="1053776" shape="1, 64, 1, 1" size="256"/>
			<output>
				<port id="0" precision="FP32">
					<dim>1</dim>
					<dim>64</dim>
					<dim>1</dim>
					<dim>1</dim>
				</port>
			</output>
		</layer>
		<layer id="61" name="StatefulPartitionedCall/functional_1/batch_normalization_7/FusedBatchNormV3/variance/Fused_Add_" type="Add" version="opset1">
			<data auto_broadcast="numpy"/>
			<input>
				<port id="0" precision="FP32">
					<dim>1</dim>
					<dim>64</dim>
					<dim>52</dim>
					<dim>52</dim>
				</port>
				<port id="1" precision="FP32">
					<dim>1</dim>
					<dim>64</dim>
					<dim>1</dim>
					<dim>1</dim>
				</port>
			</input>
			<output>
				<port id="2" names="StatefulPartitionedCall/functional_1/batch_normalization_7/FusedBatchNormV3:0" precision="FP32">
					<dim>1</dim>
					<dim>64</dim>
					<dim>52</dim>
					<dim>52</dim>
				</port>
			</output>
		</layer>
		<layer id="62" name="StatefulPartitionedCall/functional_1/tf_op_layer_LeakyRelu_7/LeakyRelu_7/weights1236917770" type="Const" version="opset1">
			<data element_type="f32" offset="3652" shape="1" size="4"/>
			<output>
				<port id="0" precision="FP32">
					<dim>1</dim>
				</port>
			</output>
		</layer>
		<layer id="63" name="StatefulPartitionedCall/functional_1/tf_op_layer_LeakyRelu_7/LeakyRelu_7" type="PReLU" version="opset1">
			<input>
				<port id="0" precision="FP32">
					<dim>1</dim>
					<dim>64</dim>
					<dim>52</dim>
					<dim>52</dim>
				</port>
				<port id="1" precision="FP32">
					<dim>1</dim>
				</port>
			</input>
			<output>
				<port id="2" names="StatefulPartitionedCall/functional_1/tf_op_layer_LeakyRelu_7/LeakyRelu_7:0" precision="FP32">
					<dim>1</dim>
					<dim>64</dim>
					<dim>52</dim>
					<dim>52</dim>
				</port>
			</output>
		</layer>
		<layer id="64" name="StatefulPartitionedCall/functional_1/batch_normalization_8/FusedBatchNormV3/mean/Fused_Mul__copy" type="Const" version="opset1">
			<data element_type="f32" offset="1054032" shape="64, 64, 3, 3" size="147456"/>
			<output>
				<port id="0" names="StatefulPartitionedCall/functional_1/conv2d_8/Conv2D/ReadVariableOp:0" precision="FP32">
					<dim>64</dim>
					<dim>64</dim>
					<dim>3</dim>
					<dim>3</dim>
				</port>
			</output>
		</layer>
		<layer id="65" name="StatefulPartitionedCall/functional_1/conv2d_8/Conv2D" type="Convolution" version="opset1">
			<data auto_pad="same_upper" dilations="1, 1" pads_begin="1, 1" pads_end="1, 1" strides="1, 1"/>
			<input>
				<port id="0" precision="FP32">
					<dim>1</dim>
					<dim>64</dim>
					<dim>52</dim>
					<dim>52</dim>
				</port>
				<port id="1" precision="FP32">
					<dim>64</dim>
					<dim>64</dim>
					<dim>3</dim>
					<dim>3</dim>
				</port>
			</input>
			<output>
				<port id="2" precision="FP32">
					<dim>1</dim>
					<dim>64</dim>
					<dim>52</dim>
					<dim>52</dim>
				</port>
			</output>
		</layer>
		<layer id="66" name="data_add_82138218" type="Const" version="opset1">
			<data element_type="f32" offset="1201488" shape="1, 64, 1, 1" size="256"/>
			<output>
				<port id="0" precision="FP32">
					<dim>1</dim>
					<dim>64</dim>
					<dim>1</dim>
					<dim>1</dim>
				</port>
			</output>
		</layer>
		<layer id="67" name="StatefulPartitionedCall/functional_1/batch_normalization_8/FusedBatchNormV3/variance/Fused_Add_" type="Add" version="opset1">
			<data auto_broadcast="numpy"/>
			<input>
				<port id="0" precision="FP32">
					<dim>1</dim>
					<dim>64</dim>
					<dim>52</dim>
					<dim>52</dim>
				</port>
				<port id="1" precision="FP32">
					<dim>1</dim>
					<dim>64</dim>
					<dim>1</dim>
					<dim>1</dim>
				</port>
			</input>
			<output>
				<port id="2" names="StatefulPartitionedCall/functional_1/batch_normalization_8/FusedBatchNormV3:0" precision="FP32">
					<dim>1</dim>
					<dim>64</dim>
					<dim>52</dim>
					<dim>52</dim>
				</port>
			</output>
		</layer>
		<layer id="68" name="StatefulPartitionedCall/functional_1/tf_op_layer_LeakyRelu_8/LeakyRelu_8/weights1239718040" type="Const" version="opset1">
			<data element_type="f32" offset="3652" shape="1" size="4"/>
			<output>
				<port id="0" precision="FP32">
					<dim>1</dim>
				</port>
			</output>
		</layer>
		<layer id="69" name="StatefulPartitionedCall/functional_1/tf_op_layer_LeakyRelu_8/LeakyRelu_8" type="PReLU" version="opset1">
			<input>
				<port id="0" precision="FP32">
					<dim>1</dim>
					<dim>64</dim>
					<dim>52</dim>
					<dim>52</dim>
				</port>
				<port id="1" precision="FP32">
					<dim>1</dim>
				</port>
			</input>
			<output>
				<port id="2" names="StatefulPartitionedCall/functional_1/tf_op_layer_LeakyRelu_8/LeakyRelu_8:0" precision="FP32">
					<dim>1</dim>
					<dim>64</dim>
					<dim>52</dim>
					<dim>52</dim>
				</port>
			</output>
		</layer>
		<layer id="70" name="StatefulPartitionedCall/functional_1/tf_op_layer_concat_2/concat_2" type="Concat" version="opset1">
			<data axis="1"/>
			<input>
				<port id="0" precision="FP32">
					<dim>1</dim>
					<dim>64</dim>
					<dim>52</dim>
					<dim>52</dim>
				</port>
				<port id="1" precision="FP32">
					<dim>1</dim>
					<dim>64</dim>
					<dim>52</dim>
					<dim>52</dim>
				</port>
			</input>
			<output>
				<port id="2" names="StatefulPartitionedCall/functional_1/tf_op_layer_concat_2/concat_2:0" precision="FP32">
					<dim>1</dim>
					<dim>128</dim>
					<dim>52</dim>
					<dim>52</dim>
				</port>
			</output>
		</layer>
		<layer id="71" name="StatefulPartitionedCall/functional_1/batch_normalization_9/FusedBatchNormV3/mean/Fused_Mul__copy" type="Const" version="opset1">
			<data element_type="f32" offset="1201744" shape="128, 128, 1, 1" size="65536"/>
			<output>
				<port id="0" names="StatefulPartitionedCall/functional_1/conv2d_9/Conv2D/ReadVariableOp:0" precision="FP32">
					<dim>128</dim>
					<dim>128</dim>
					<dim>1</dim>
					<dim>1</dim>
				</port>
			</output>
		</layer>
		<layer id="72" name="StatefulPartitionedCall/functional_1/conv2d_9/Conv2D" type="Convolution" version="opset1">
			<data auto_pad="same_upper" dilations="1, 1" pads_begin="0, 0" pads_end="0, 0" strides="1, 1"/>
			<input>
				<port id="0" precision="FP32">
					<dim>1</dim>
					<dim>128</dim>
					<dim>52</dim>
					<dim>52</dim>
				</port>
				<port id="1" precision="FP32">
					<dim>128</dim>
					<dim>128</dim>
					<dim>1</dim>
					<dim>1</dim>
				</port>
			</input>
			<output>
				<port id="2" precision="FP32">
					<dim>1</dim>
					<dim>128</dim>
					<dim>52</dim>
					<dim>52</dim>
				</port>
			</output>
		</layer>
		<layer id="73" name="data_add_82218226" type="Const" version="opset1">
			<data element_type="f32" offset="1267280" shape="1, 128, 1, 1" size="512"/>
			<output>
				<port id="0" precision="FP32">
					<dim>1</dim>
					<dim>128</dim>
					<dim>1</dim>
					<dim>1</dim>
				</port>
			</output>
		</layer>
		<layer id="74" name="StatefulPartitionedCall/functional_1/batch_normalization_9/FusedBatchNormV3/variance/Fused_Add_" type="Add" version="opset1">
			<data auto_broadcast="numpy"/>
			<input>
				<port id="0" precision="FP32">
					<dim>1</dim>
					<dim>128</dim>
					<dim>52</dim>
					<dim>52</dim>
				</port>
				<port id="1" precision="FP32">
					<dim>1</dim>
					<dim>128</dim>
					<dim>1</dim>
					<dim>1</dim>
				</port>
			</input>
			<output>
				<port id="2" names="StatefulPartitionedCall/functional_1/batch_normalization_9/FusedBatchNormV3:0" precision="FP32">
					<dim>1</dim>
					<dim>128</dim>
					<dim>52</dim>
					<dim>52</dim>
				</port>
			</output>
		</layer>
		<layer id="75" name="StatefulPartitionedCall/functional_1/tf_op_layer_LeakyRelu_9/LeakyRelu_9/weights1240517809" type="Const" version="opset1">
			<data element_type="f32" offset="3652" shape="1" size="4"/>
			<output>
				<port id="0" precision="FP32">
					<dim>1</dim>
				</port>
			</output>
		</layer>
		<layer id="76" name="StatefulPartitionedCall/functional_1/tf_op_layer_LeakyRelu_9/LeakyRelu_9" type="PReLU" version="opset1">
			<input>
				<port id="0" precision="FP32">
					<dim>1</dim>
					<dim>128</dim>
					<dim>52</dim>
					<dim>52</dim>
				</port>
				<port id="1" precision="FP32">
					<dim>1</dim>
				</port>
			</input>
			<output>
				<port id="2" names="StatefulPartitionedCall/functional_1/tf_op_layer_LeakyRelu_9/LeakyRelu_9:0" precision="FP32">
					<dim>1</dim>
					<dim>128</dim>
					<dim>52</dim>
					<dim>52</dim>
				</port>
			</output>
		</layer>
		<layer id="77" name="StatefulPartitionedCall/functional_1/tf_op_layer_concat_3/concat_3" type="Concat" version="opset1">
			<data axis="1"/>
			<input>
				<port id="0" precision="FP32">
					<dim>1</dim>
					<dim>128</dim>
					<dim>52</dim>
					<dim>52</dim>
				</port>
				<port id="1" precision="FP32">
					<dim>1</dim>
					<dim>128</dim>
					<dim>52</dim>
					<dim>52</dim>
				</port>
			</input>
			<output>
				<port id="2" names="StatefulPartitionedCall/functional_1/tf_op_layer_concat_3/concat_3:0" precision="FP32">
					<dim>1</dim>
					<dim>256</dim>
					<dim>52</dim>
					<dim>52</dim>
				</port>
			</output>
		</layer>
		<layer id="78" name="StatefulPartitionedCall/functional_1/max_pooling2d_1/MaxPool" type="MaxPool" version="opset1">
			<data auto_pad="same_upper" kernel="2, 2" pads_begin="0, 0" pads_end="0, 0" rounding_type="floor" strides="2, 2"/>
			<input>
				<port id="0" precision="FP32">
					<dim>1</dim>
					<dim>256</dim>
					<dim>52</dim>
					<dim>52</dim>
				</port>
			</input>
			<output>
				<port id="1" names="StatefulPartitionedCall/functional_1/max_pooling2d_1/MaxPool:0" precision="FP32">
					<dim>1</dim>
					<dim>256</dim>
					<dim>26</dim>
					<dim>26</dim>
				</port>
			</output>
		</layer>
		<layer id="79" name="StatefulPartitionedCall/functional_1/batch_normalization_10/FusedBatchNormV3/mean/Fused_Mul__copy" type="Const" version="opset1">
			<data element_type="f32" offset="1267792" shape="256, 256, 3, 3" size="2359296"/>
			<output>
				<port id="0" names="StatefulPartitionedCall/functional_1/conv2d_10/Conv2D/ReadVariableOp:0" precision="FP32">
					<dim>256</dim>
					<dim>256</dim>
					<dim>3</dim>
					<dim>3</dim>
				</port>
			</output>
		</layer>
		<layer id="80" name="StatefulPartitionedCall/functional_1/conv2d_10/Conv2D" type="Convolution" version="opset1">
			<data auto_pad="same_upper" dilations="1, 1" pads_begin="1, 1" pads_end="1, 1" strides="1, 1"/>
			<input>
				<port id="0" precision="FP32">
					<dim>1</dim>
					<dim>256</dim>
					<dim>26</dim>
					<dim>26</dim>
				</port>
				<port id="1" precision="FP32">
					<dim>256</dim>
					<dim>256</dim>
					<dim>3</dim>
					<dim>3</dim>
				</port>
			</input>
			<output>
				<port id="2" precision="FP32">
					<dim>1</dim>
					<dim>256</dim>
					<dim>26</dim>
					<dim>26</dim>
				</port>
			</output>
		</layer>
		<layer id="81" name="data_add_82298234" type="Const" version="opset1">
			<data element_type="f32" offset="3627088" shape="1, 256, 1, 1" size="1024"/>
			<output>
				<port id="0" precision="FP32">
					<dim>1</dim>
					<dim>256</dim>
					<dim>1</dim>
					<dim>1</dim>
				</port>
			</output>
		</layer>
		<layer id="82" name="StatefulPartitionedCall/functional_1/batch_normalization_10/FusedBatchNormV3/variance/Fused_Add_" type="Add" version="opset1">
			<data auto_broadcast="numpy"/>
			<input>
				<port id="0" precision="FP32">
					<dim>1</dim>
					<dim>256</dim>
					<dim>26</dim>
					<dim>26</dim>
				</port>
				<port id="1" precision="FP32">
					<dim>1</dim>
					<dim>256</dim>
					<dim>1</dim>
					<dim>1</dim>
				</port>
			</input>
			<output>
				<port id="2" names="StatefulPartitionedCall/functional_1/batch_normalization_10/FusedBatchNormV3:0" precision="FP32">
					<dim>1</dim>
					<dim>256</dim>
					<dim>26</dim>
					<dim>26</dim>
				</port>
			</output>
		</layer>
		<layer id="83" name="StatefulPartitionedCall/functional_1/tf_op_layer_LeakyRelu_10/LeakyRelu_10/weights1236517806" type="Const" version="opset1">
			<data element_type="f32" offset="3652" shape="1" size="4"/>
			<output>
				<port id="0" precision="FP32">
					<dim>1</dim>
				</port>
			</output>
		</layer>
		<layer id="84" name="StatefulPartitionedCall/functional_1/tf_op_layer_LeakyRelu_10/LeakyRelu_10" type="PReLU" version="opset1">
			<input>
				<port id="0" precision="FP32">
					<dim>1</dim>
					<dim>256</dim>
					<dim>26</dim>
					<dim>26</dim>
				</port>
				<port id="1" precision="FP32">
					<dim>1</dim>
				</port>
			</input>
			<output>
				<port id="2" names="StatefulPartitionedCall/functional_1/tf_op_layer_LeakyRelu_10/LeakyRelu_10:0" precision="FP32">
					<dim>1</dim>
					<dim>256</dim>
					<dim>26</dim>
					<dim>26</dim>
				</port>
			</output>
		</layer>
		<layer id="85" name="1113017905" type="Const" version="opset1">
			<data element_type="i64" offset="225352" shape="" size="8"/>
			<output>
				<port id="0" precision="I64"/>
			</output>
		</layer>
		<layer id="86" name="StatefulPartitionedCall/functional_1/tf_op_layer_split_2/split_2" type="Split" version="opset1">
			<data num_splits="2"/>
			<input>
				<port id="0" precision="FP32">
					<dim>1</dim>
					<dim>256</dim>
					<dim>26</dim>
					<dim>26</dim>
				</port>
				<port id="1" precision="I64"/>
			</input>
			<output>
				<port id="2" precision="FP32">
					<dim>1</dim>
					<dim>128</dim>
					<dim>26</dim>
					<dim>26</dim>
				</port>
				<port id="3" names="StatefulPartitionedCall/functional_1/tf_op_layer_split_2/split_2:1" precision="FP32">
					<dim>1</dim>
					<dim>128</dim>
					<dim>26</dim>
					<dim>26</dim>
				</port>
			</output>
		</layer>
		<layer id="87" name="StatefulPartitionedCall/functional_1/batch_normalization_11/FusedBatchNormV3/mean/Fused_Mul__copy" type="Const" version="opset1">
			<data element_type="f32" offset="3628112" shape="128, 128, 3, 3" size="589824"/>
			<output>
				<port id="0" names="StatefulPartitionedCall/functional_1/conv2d_11/Conv2D/ReadVariableOp:0" precision="FP32">
					<dim>128</dim>
					<dim>128</dim>
					<dim>3</dim>
					<dim>3</dim>
				</port>
			</output>
		</layer>
		<layer id="88" name="StatefulPartitionedCall/functional_1/conv2d_11/Conv2D" type="Convolution" version="opset1">
			<data auto_pad="same_upper" dilations="1, 1" pads_begin="1, 1" pads_end="1, 1" strides="1, 1"/>
			<input>
				<port id="0" precision="FP32">
					<dim>1</dim>
					<dim>128</dim>
					<dim>26</dim>
					<dim>26</dim>
				</port>
				<port id="1" precision="FP32">
					<dim>128</dim>
					<dim>128</dim>
					<dim>3</dim>
					<dim>3</dim>
				</port>
			</input>
			<output>
				<port id="2" precision="FP32">
					<dim>1</dim>
					<dim>128</dim>
					<dim>26</dim>
					<dim>26</dim>
				</port>
			</output>
		</layer>
		<layer id="89" name="data_add_82378242" type="Const" version="opset1">
			<data element_type="f32" offset="4217936" shape="1, 128, 1, 1" size="512"/>
			<output>
				<port id="0" precision="FP32">
					<dim>1</dim>
					<dim>128</dim>
					<dim>1</dim>
					<dim>1</dim>
				</port>
			</output>
		</layer>
		<layer id="90" name="StatefulPartitionedCall/functional_1/batch_normalization_11/FusedBatchNormV3/variance/Fused_Add_" type="Add" version="opset1">
			<data auto_broadcast="numpy"/>
			<input>
				<port id="0" precision="FP32">
					<dim>1</dim>
					<dim>128</dim>
					<dim>26</dim>
					<dim>26</dim>
				</port>
				<port id="1" precision="FP32">
					<dim>1</dim>
					<dim>128</dim>
					<dim>1</dim>
					<dim>1</dim>
				</port>
			</input>
			<output>
				<port id="2" names="StatefulPartitionedCall/functional_1/batch_normalization_11/FusedBatchNormV3:0" precision="FP32">
					<dim>1</dim>
					<dim>128</dim>
					<dim>26</dim>
					<dim>26</dim>
				</port>
			</output>
		</layer>
		<layer id="91" name="StatefulPartitionedCall/functional_1/tf_op_layer_LeakyRelu_11/LeakyRelu_11/weights1240117962" type="Const" version="opset1">
			<data element_type="f32" offset="3652" shape="1" size="4"/>
			<output>
				<port id="0" precision="FP32">
					<dim>1</dim>
				</port>
			</output>
		</layer>
		<layer id="92" name="StatefulPartitionedCall/functional_1/tf_op_layer_LeakyRelu_11/LeakyRelu_11" type="PReLU" version="opset1">
			<input>
				<port id="0" precision="FP32">
					<dim>1</dim>
					<dim>128</dim>
					<dim>26</dim>
					<dim>26</dim>
				</port>
				<port id="1" precision="FP32">
					<dim>1</dim>
				</port>
			</input>
			<output>
				<port id="2" names="StatefulPartitionedCall/functional_1/tf_op_layer_LeakyRelu_11/LeakyRelu_11:0" precision="FP32">
					<dim>1</dim>
					<dim>128</dim>
					<dim>26</dim>
					<dim>26</dim>
				</port>
			</output>
		</layer>
		<layer id="93" name="StatefulPartitionedCall/functional_1/batch_normalization_12/FusedBatchNormV3/mean/Fused_Mul__copy" type="Const" version="opset1">
			<data element_type="f32" offset="4218448" shape="128, 128, 3, 3" size="589824"/>
			<output>
				<port id="0" names="StatefulPartitionedCall/functional_1/conv2d_12/Conv2D/ReadVariableOp:0" precision="FP32">
					<dim>128</dim>
					<dim>128</dim>
					<dim>3</dim>
					<dim>3</dim>
				</port>
			</output>
		</layer>
		<layer id="94" name="StatefulPartitionedCall/functional_1/conv2d_12/Conv2D" type="Convolution" version="opset1">
			<data auto_pad="same_upper" dilations="1, 1" pads_begin="1, 1" pads_end="1, 1" strides="1, 1"/>
			<input>
				<port id="0" precision="FP32">
					<dim>1</dim>
					<dim>128</dim>
					<dim>26</dim>
					<dim>26</dim>
				</port>
				<port id="1" precision="FP32">
					<dim>128</dim>
					<dim>128</dim>
					<dim>3</dim>
					<dim>3</dim>
				</port>
			</input>
			<output>
				<port id="2" precision="FP32">
					<dim>1</dim>
					<dim>128</dim>
					<dim>26</dim>
					<dim>26</dim>
				</port>
			</output>
		</layer>
		<layer id="95" name="data_add_82458250" type="Const" version="opset1">
			<data element_type="f32" offset="4808272" shape="1, 128, 1, 1" size="512"/>
			<output>
				<port id="0" precision="FP32">
					<dim>1</dim>
					<dim>128</dim>
					<dim>1</dim>
					<dim>1</dim>
				</port>
			</output>
		</layer>
		<layer id="96" name="StatefulPartitionedCall/functional_1/batch_normalization_12/FusedBatchNormV3/variance/Fused_Add_" type="Add" version="opset1">
			<data auto_broadcast="numpy"/>
			<input>
				<port id="0" precision="FP32">
					<dim>1</dim>
					<dim>128</dim>
					<dim>26</dim>
					<dim>26</dim>
				</port>
				<port id="1" precision="FP32">
					<dim>1</dim>
					<dim>128</dim>
					<dim>1</dim>
					<dim>1</dim>
				</port>
			</input>
			<output>
				<port id="2" names="StatefulPartitionedCall/functional_1/batch_normalization_12/FusedBatchNormV3:0" precision="FP32">
					<dim>1</dim>
					<dim>128</dim>
					<dim>26</dim>
					<dim>26</dim>
				</port>
			</output>
		</layer>
		<layer id="97" name="StatefulPartitionedCall/functional_1/tf_op_layer_LeakyRelu_12/LeakyRelu_12/weights1238917911" type="Const" version="opset1">
			<data element_type="f32" offset="3652" shape="1" size="4"/>
			<output>
				<port id="0" precision="FP32">
					<dim>1</dim>
				</port>
			</output>
		</layer>
		<layer id="98" name="StatefulPartitionedCall/functional_1/tf_op_layer_LeakyRelu_12/LeakyRelu_12" type="PReLU" version="opset1">
			<input>
				<port id="0" precision="FP32">
					<dim>1</dim>
					<dim>128</dim>
					<dim>26</dim>
					<dim>26</dim>
				</port>
				<port id="1" precision="FP32">
					<dim>1</dim>
				</port>
			</input>
			<output>
				<port id="2" names="StatefulPartitionedCall/functional_1/tf_op_layer_LeakyRelu_12/LeakyRelu_12:0" precision="FP32">
					<dim>1</dim>
					<dim>128</dim>
					<dim>26</dim>
					<dim>26</dim>
				</port>
			</output>
		</layer>
		<layer id="99" name="StatefulPartitionedCall/functional_1/tf_op_layer_concat_4/concat_4" type="Concat" version="opset1">
			<data axis="1"/>
			<input>
				<port id="0" precision="FP32">
					<dim>1</dim>
					<dim>128</dim>
					<dim>26</dim>
					<dim>26</dim>
				</port>
				<port id="1" precision="FP32">
					<dim>1</dim>
					<dim>128</dim>
					<dim>26</dim>
					<dim>26</dim>
				</port>
			</input>
			<output>
				<port id="2" names="StatefulPartitionedCall/functional_1/tf_op_layer_concat_4/concat_4:0" precision="FP32">
					<dim>1</dim>
					<dim>256</dim>
					<dim>26</dim>
					<dim>26</dim>
				</port>
			</output>
		</layer>
		<layer id="100" name="StatefulPartitionedCall/functional_1/batch_normalization_13/FusedBatchNormV3/mean/Fused_Mul__copy" type="Const" version="opset1">
			<data element_type="f32" offset="4808784" shape="256, 256, 1, 1" size="262144"/>
			<output>
				<port id="0" names="StatefulPartitionedCall/functional_1/conv2d_13/Conv2D/ReadVariableOp:0" precision="FP32">
					<dim>256</dim>
					<dim>256</dim>
					<dim>1</dim>
					<dim>1</dim>
				</port>
			</output>
		</layer>
		<layer id="101" name="StatefulPartitionedCall/functional_1/conv2d_13/Conv2D" type="Convolution" version="opset1">
			<data auto_pad="same_upper" dilations="1, 1" pads_begin="0, 0" pads_end="0, 0" strides="1, 1"/>
			<input>
				<port id="0" precision="FP32">
					<dim>1</dim>
					<dim>256</dim>
					<dim>26</dim>
					<dim>26</dim>
				</port>
				<port id="1" precision="FP32">
					<dim>256</dim>
					<dim>256</dim>
					<dim>1</dim>
					<dim>1</dim>
				</port>
			</input>
			<output>
				<port id="2" precision="FP32">
					<dim>1</dim>
					<dim>256</dim>
					<dim>26</dim>
					<dim>26</dim>
				</port>
			</output>
		</layer>
		<layer id="102" name="data_add_82538258" type="Const" version="opset1">
			<data element_type="f32" offset="5070928" shape="1, 256, 1, 1" size="1024"/>
			<output>
				<port id="0" precision="FP32">
					<dim>1</dim>
					<dim>256</dim>
					<dim>1</dim>
					<dim>1</dim>
				</port>
			</output>
		</layer>
		<layer id="103" name="StatefulPartitionedCall/functional_1/batch_normalization_13/FusedBatchNormV3/variance/Fused_Add_" type="Add" version="opset1">
			<data auto_broadcast="numpy"/>
			<input>
				<port id="0" precision="FP32">
					<dim>1</dim>
					<dim>256</dim>
					<dim>26</dim>
					<dim>26</dim>
				</port>
				<port id="1" precision="FP32">
					<dim>1</dim>
					<dim>256</dim>
					<dim>1</dim>
					<dim>1</dim>
				</port>
			</input>
			<output>
				<port id="2" names="StatefulPartitionedCall/functional_1/batch_normalization_13/FusedBatchNormV3:0" precision="FP32">
					<dim>1</dim>
					<dim>256</dim>
					<dim>26</dim>
					<dim>26</dim>
				</port>
			</output>
		</layer>
		<layer id="104" name="StatefulPartitionedCall/functional_1/tf_op_layer_LeakyRelu_13/LeakyRelu_13/weights1233717572" type="Const" version="opset1">
			<data element_type="f32" offset="3652" shape="1" size="4"/>
			<output>
				<port id="0" precision="FP32">
					<dim>1</dim>
				</port>
			</output>
		</layer>
		<layer id="105" name="StatefulPartitionedCall/functional_1/tf_op_layer_LeakyRelu_13/LeakyRelu_13" type="PReLU" version="opset1">
			<input>
				<port id="0" precision="FP32">
					<dim>1</dim>
					<dim>256</dim>
					<dim>26</dim>
					<dim>26</dim>
				</port>
				<port id="1" precision="FP32">
					<dim>1</dim>
				</port>
			</input>
			<output>
				<port id="2" names="StatefulPartitionedCall/functional_1/tf_op_layer_LeakyRelu_13/LeakyRelu_13:0" precision="FP32">
					<dim>1</dim>
					<dim>256</dim>
					<dim>26</dim>
					<dim>26</dim>
				</port>
			</output>
		</layer>
		<layer id="106" name="StatefulPartitionedCall/functional_1/tf_op_layer_concat_5/concat_5" type="Concat" version="opset1">
			<data axis="1"/>
			<input>
				<port id="0" precision="FP32">
					<dim>1</dim>
					<dim>256</dim>
					<dim>26</dim>
					<dim>26</dim>
				</port>
				<port id="1" precision="FP32">
					<dim>1</dim>
					<dim>256</dim>
					<dim>26</dim>
					<dim>26</dim>
				</port>
			</input>
			<output>
				<port id="2" names="StatefulPartitionedCall/functional_1/tf_op_layer_concat_5/concat_5:0" precision="FP32">
					<dim>1</dim>
					<dim>512</dim>
					<dim>26</dim>
					<dim>26</dim>
				</port>
			</output>
		</layer>
		<layer id="107" name="StatefulPartitionedCall/functional_1/max_pooling2d_2/MaxPool" type="MaxPool" version="opset1">
			<data auto_pad="same_upper" kernel="2, 2" pads_begin="0, 0" pads_end="0, 0" rounding_type="floor" strides="2, 2"/>
			<input>
				<port id="0" precision="FP32">
					<dim>1</dim>
					<dim>512</dim>
					<dim>26</dim>
					<dim>26</dim>
				</port>
			</input>
			<output>
				<port id="1" names="StatefulPartitionedCall/functional_1/max_pooling2d_2/MaxPool:0" precision="FP32">
					<dim>1</dim>
					<dim>512</dim>
					<dim>13</dim>
					<dim>13</dim>
				</port>
			</output>
		</layer>
		<layer id="108" name="StatefulPartitionedCall/functional_1/batch_normalization_14/FusedBatchNormV3/mean/Fused_Mul__copy" type="Const" version="opset1">
			<data element_type="f32" offset="5071952" shape="512, 512, 3, 3" size="9437184"/>
			<output>
				<port id="0" names="StatefulPartitionedCall/functional_1/conv2d_14/Conv2D/ReadVariableOp:0" precision="FP32">
					<dim>512</dim>
					<dim>512</dim>
					<dim>3</dim>
					<dim>3</dim>
				</port>
			</output>
		</layer>
		<layer id="109" name="StatefulPartitionedCall/functional_1/conv2d_14/Conv2D" type="Convolution" version="opset1">
			<data auto_pad="same_upper" dilations="1, 1" pads_begin="1, 1" pads_end="1, 1" strides="1, 1"/>
			<input>
				<port id="0" precision="FP32">
					<dim>1</dim>
					<dim>512</dim>
					<dim>13</dim>
					<dim>13</dim>
				</port>
				<port id="1" precision="FP32">
					<dim>512</dim>
					<dim>512</dim>
					<dim>3</dim>
					<dim>3</dim>
				</port>
			</input>
			<output>
				<port id="2" precision="FP32">
					<dim>1</dim>
					<dim>512</dim>
					<dim>13</dim>
					<dim>13</dim>
				</port>
			</output>
		</layer>
		<layer id="110" name="data_add_82618266" type="Const" version="opset1">
			<data element_type="f32" offset="14509136" shape="1, 512, 1, 1" size="2048"/>
			<output>
				<port id="0" precision="FP32">
					<dim>1</dim>
					<dim>512</dim>
					<dim>1</dim>
					<dim>1</dim>
				</port>
			</output>
		</layer>
		<layer id="111" name="StatefulPartitionedCall/functional_1/batch_normalization_14/FusedBatchNormV3/variance/Fused_Add_" type="Add" version="opset1">
			<data auto_broadcast="numpy"/>
			<input>
				<port id="0" precision="FP32">
					<dim>1</dim>
					<dim>512</dim>
					<dim>13</dim>
					<dim>13</dim>
				</port>
				<port id="1" precision="FP32">
					<dim>1</dim>
					<dim>512</dim>
					<dim>1</dim>
					<dim>1</dim>
				</port>
			</input>
			<output>
				<port id="2" names="StatefulPartitionedCall/functional_1/batch_normalization_14/FusedBatchNormV3:0" precision="FP32">
					<dim>1</dim>
					<dim>512</dim>
					<dim>13</dim>
					<dim>13</dim>
				</port>
			</output>
		</layer>
		<layer id="112" name="StatefulPartitionedCall/functional_1/tf_op_layer_LeakyRelu_14/LeakyRelu_14/weights1239317584" type="Const" version="opset1">
			<data element_type="f32" offset="3652" shape="1" size="4"/>
			<output>
				<port id="0" precision="FP32">
					<dim>1</dim>
				</port>
			</output>
		</layer>
		<layer id="113" name="StatefulPartitionedCall/functional_1/tf_op_layer_LeakyRelu_14/LeakyRelu_14" type="PReLU" version="opset1">
			<input>
				<port id="0" precision="FP32">
					<dim>1</dim>
					<dim>512</dim>
					<dim>13</dim>
					<dim>13</dim>
				</port>
				<port id="1" precision="FP32">
					<dim>1</dim>
				</port>
			</input>
			<output>
				<port id="2" names="StatefulPartitionedCall/functional_1/tf_op_layer_LeakyRelu_14/LeakyRelu_14:0" precision="FP32">
					<dim>1</dim>
					<dim>512</dim>
					<dim>13</dim>
					<dim>13</dim>
				</port>
			</output>
		</layer>
		<layer id="114" name="StatefulPartitionedCall/functional_1/batch_normalization_15/FusedBatchNormV3/mean/Fused_Mul__copy" type="Const" version="opset1">
			<data element_type="f32" offset="14511184" shape="256, 512, 1, 1" size="524288"/>
			<output>
				<port id="0" names="StatefulPartitionedCall/functional_1/conv2d_15/Conv2D/ReadVariableOp:0" precision="FP32">
					<dim>256</dim>
					<dim>512</dim>
					<dim>1</dim>
					<dim>1</dim>
				</port>
			</output>
		</layer>
		<layer id="115" name="StatefulPartitionedCall/functional_1/conv2d_15/Conv2D" type="Convolution" version="opset1">
			<data auto_pad="same_upper" dilations="1, 1" pads_begin="0, 0" pads_end="0, 0" strides="1, 1"/>
			<input>
				<port id="0" precision="FP32">
					<dim>1</dim>
					<dim>512</dim>
					<dim>13</dim>
					<dim>13</dim>
				</port>
				<port id="1" precision="FP32">
					<dim>256</dim>
					<dim>512</dim>
					<dim>1</dim>
					<dim>1</dim>
				</port>
			</input>
			<output>
				<port id="2" precision="FP32">
					<dim>1</dim>
					<dim>256</dim>
					<dim>13</dim>
					<dim>13</dim>
				</port>
			</output>
		</layer>
		<layer id="116" name="data_add_82698274" type="Const" version="opset1">
			<data element_type="f32" offset="15035472" shape="1, 256, 1, 1" size="1024"/>
			<output>
				<port id="0" precision="FP32">
					<dim>1</dim>
					<dim>256</dim>
					<dim>1</dim>
					<dim>1</dim>
				</port>
			</output>
		</layer>
		<layer id="117" name="StatefulPartitionedCall/functional_1/batch_normalization_15/FusedBatchNormV3/variance/Fused_Add_" type="Add" version="opset1">
			<data auto_broadcast="numpy"/>
			<input>
				<port id="0" precision="FP32">
					<dim>1</dim>
					<dim>256</dim>
					<dim>13</dim>
					<dim>13</dim>
				</port>
				<port id="1" precision="FP32">
					<dim>1</dim>
					<dim>256</dim>
					<dim>1</dim>
					<dim>1</dim>
				</port>
			</input>
			<output>
				<port id="2" names="StatefulPartitionedCall/functional_1/batch_normalization_15/FusedBatchNormV3:0" precision="FP32">
					<dim>1</dim>
					<dim>256</dim>
					<dim>13</dim>
					<dim>13</dim>
				</port>
			</output>
		</layer>
		<layer id="118" name="StatefulPartitionedCall/functional_1/tf_op_layer_LeakyRelu_15/LeakyRelu_15/weights1240917707" type="Const" version="opset1">
			<data element_type="f32" offset="3652" shape="1" size="4"/>
			<output>
				<port id="0" precision="FP32">
					<dim>1</dim>
				</port>
			</output>
		</layer>
		<layer id="119" name="StatefulPartitionedCall/functional_1/tf_op_layer_LeakyRelu_15/LeakyRelu_15" type="PReLU" version="opset1">
			<input>
				<port id="0" precision="FP32">
					<dim>1</dim>
					<dim>256</dim>
					<dim>13</dim>
					<dim>13</dim>
				</port>
				<port id="1" precision="FP32">
					<dim>1</dim>
				</port>
			</input>
			<output>
				<port id="2" names="StatefulPartitionedCall/functional_1/tf_op_layer_LeakyRelu_15/LeakyRelu_15:0" precision="FP32">
					<dim>1</dim>
					<dim>256</dim>
					<dim>13</dim>
					<dim>13</dim>
				</port>
			</output>
		</layer>
		<layer id="120" name="StatefulPartitionedCall/functional_1/batch_normalization_17/FusedBatchNormV3/mean/Fused_Mul__copy" type="Const" version="opset1">
			<data element_type="f32" offset="15036496" shape="128, 256, 1, 1" size="131072"/>
			<output>
				<port id="0" names="StatefulPartitionedCall/functional_1/conv2d_18/Conv2D/ReadVariableOp:0" precision="FP32">
					<dim>128</dim>
					<dim>256</dim>
					<dim>1</dim>
					<dim>1</dim>
				</port>
			</output>
		</layer>
		<layer id="121" name="StatefulPartitionedCall/functional_1/conv2d_18/Conv2D" type="Convolution" version="opset1">
			<data auto_pad="same_upper" dilations="1, 1" pads_begin="0, 0" pads_end="0, 0" strides="1, 1"/>
			<input>
				<port id="0" precision="FP32">
					<dim>1</dim>
					<dim>256</dim>
					<dim>13</dim>
					<dim>13</dim>
				</port>
				<port id="1" precision="FP32">
					<dim>128</dim>
					<dim>256</dim>
					<dim>1</dim>
					<dim>1</dim>
				</port>
			</input>
			<output>
				<port id="2" precision="FP32">
					<dim>1</dim>
					<dim>128</dim>
					<dim>13</dim>
					<dim>13</dim>
				</port>
			</output>
		</layer>
		<layer id="122" name="data_add_82858290" type="Const" version="opset1">
			<data element_type="f32" offset="15167568" shape="1, 128, 1, 1" size="512"/>
			<output>
				<port id="0" precision="FP32">
					<dim>1</dim>
					<dim>128</dim>
					<dim>1</dim>
					<dim>1</dim>
				</port>
			</output>
		</layer>
		<layer id="123" name="StatefulPartitionedCall/functional_1/batch_normalization_17/FusedBatchNormV3/variance/Fused_Add_" type="Add" version="opset1">
			<data auto_broadcast="numpy"/>
			<input>
				<port id="0" precision="FP32">
					<dim>1</dim>
					<dim>128</dim>
					<dim>13</dim>
					<dim>13</dim>
				</port>
				<port id="1" precision="FP32">
					<dim>1</dim>
					<dim>128</dim>
					<dim>1</dim>
					<dim>1</dim>
				</port>
			</input>
			<output>
				<port id="2" names="StatefulPartitionedCall/functional_1/batch_normalization_17/FusedBatchNormV3:0" precision="FP32">
					<dim>1</dim>
					<dim>128</dim>
					<dim>13</dim>
					<dim>13</dim>
				</port>
			</output>
		</layer>
		<layer id="124" name="StatefulPartitionedCall/functional_1/tf_op_layer_LeakyRelu_17/LeakyRelu_17/weights1235718082" type="Const" version="opset1">
			<data element_type="f32" offset="3652" shape="1" size="4"/>
			<output>
				<port id="0" precision="FP32">
					<dim>1</dim>
				</port>
			</output>
		</layer>
		<layer id="125" name="StatefulPartitionedCall/functional_1/tf_op_layer_LeakyRelu_17/LeakyRelu_17" type="PReLU" version="opset1">
			<input>
				<port id="0" precision="FP32">
					<dim>1</dim>
					<dim>128</dim>
					<dim>13</dim>
					<dim>13</dim>
				</port>
				<port id="1" precision="FP32">
					<dim>1</dim>
				</port>
			</input>
			<output>
				<port id="2" names="StatefulPartitionedCall/functional_1/tf_op_layer_LeakyRelu_17/LeakyRelu_17:0" precision="FP32">
					<dim>1</dim>
					<dim>128</dim>
					<dim>13</dim>
					<dim>13</dim>
				</port>
			</output>
		</layer>
		<layer id="126" name="StatefulPartitionedCall/functional_1/tf_op_layer_LeakyRelu_13/LeakyRelu_13/Shape" type="ShapeOf" version="opset3">
			<data output_type="i64"/>
			<input>
				<port id="0" precision="FP32">
					<dim>1</dim>
					<dim>256</dim>
					<dim>26</dim>
					<dim>26</dim>
				</port>
			</input>
			<output>
				<port id="1" precision="I64">
					<dim>4</dim>
				</port>
			</output>
		</layer>
		<layer id="127" name="StatefulPartitionedCall/functional_1/tf_op_layer_LeakyRelu_13/LeakyRelu_13/Shape/Gathered_input_port_1/value1261717521" type="Const" version="opset1">
			<data element_type="i32" offset="15168080" shape="2" size="8"/>
			<output>
				<port id="0" precision="I32">
					<dim>2</dim>
				</port>
			</output>
		</layer>
		<layer id="128" name="StatefulPartitionedCall/functional_1/tf_op_layer_LeakyRelu_13/LeakyRelu_13/Shape/Gathered_input_port_2/value1261917839" type="Const" version="opset1">
			<data element_type="i64" offset="15168088" shape="" size="8"/>
			<output>
				<port id="0" precision="I64"/>
			</output>
		</layer>
		<layer id="129" name="StatefulPartitionedCall/functional_1/tf_op_layer_LeakyRelu_13/LeakyRelu_13/Shape/Gathered" type="Gather" version="opset7">
			<data batch_dims="0"/>
			<input>
				<port id="0" precision="I64">
					<dim>4</dim>
				</port>
				<port id="1" precision="I32">
					<dim>2</dim>
				</port>
				<port id="2" precision="I64"/>
			</input>
			<output>
				<port id="3" names="StatefulPartitionedCall/functional_1/tf_op_layer_ResizeBilinear/ResizeBilinear/size:0" precision="I64">
					<dim>2</dim>
				</port>
			</output>
		</layer>
		<layer id="130" name="626" type="Const" version="opset1">
			<data element_type="f32" offset="15168096" shape="2" size="8"/>
			<output>
				<port id="0" precision="FP32">
					<dim>2</dim>
				</port>
			</output>
		</layer>
		<layer id="131" name="StatefulPartitionedCall/functional_1/tf_op_layer_ResizeBilinear/ResizeBilinear/shapeof" type="ShapeOf" version="opset3">
			<data output_type="i64"/>
			<input>
				<port id="0" precision="FP32">
					<dim>1</dim>
					<dim>128</dim>
					<dim>13</dim>
					<dim>13</dim>
				</port>
			</input>
			<output>
				<port id="1" precision="I64">
					<dim>4</dim>
				</port>
			</output>
		</layer>
		<layer id="132" name="StatefulPartitionedCall/functional_1/tf_op_layer_ResizeBilinear/ResizeBilinear/shapeof/GatherNCHWtoNHWC_input_port_1/value1087417977" type="Const" version="opset1">
			<data element_type="i32" offset="15168104" shape="4" size="16"/>
			<output>
				<port id="0" precision="I32">
					<dim>4</dim>
				</port>
			</output>
		</layer>
		<layer id="133" name="StatefulPartitionedCall/functional_1/tf_op_layer_ResizeBilinear/ResizeBilinear/shapeof/GatherNCHWtoNHWC_input_port_2/value1087617749" type="Const" version="opset1">
			<data element_type="i64" offset="15168088" shape="" size="8"/>
			<output>
				<port id="0" precision="I64"/>
			</output>
		</layer>
		<layer id="134" name="StatefulPartitionedCall/functional_1/tf_op_layer_ResizeBilinear/ResizeBilinear/shapeof/GatherNCHWtoNHWC" type="Gather" version="opset7">
			<data batch_dims="0"/>
			<input>
				<port id="0" precision="I64">
					<dim>4</dim>
				</port>
				<port id="1" precision="I32">
					<dim>4</dim>
				</port>
				<port id="2" precision="I64"/>
			</input>
			<output>
				<port id="3" precision="I64">
					<dim>4</dim>
				</port>
			</output>
		</layer>
		<layer id="135" name="StatefulPartitionedCall/functional_1/tf_op_layer_ResizeBilinear/ResizeBilinear/StridedSlice_input_port_1/value" type="Const" version="opset1">
			<data element_type="i64" offset="225352" shape="1" size="8"/>
			<output>
				<port id="0" precision="I64">
					<dim>1</dim>
				</port>
			</output>
		</layer>
		<layer id="136" name="StatefulPartitionedCall/functional_1/tf_op_layer_ResizeBilinear/ResizeBilinear/StridedSlice_input_port_2/value" type="Const" version="opset1">
			<data element_type="i64" offset="15168120" shape="1" size="8"/>
			<output>
				<port id="0" precision="I64">
					<dim>1</dim>
				</port>
			</output>
		</layer>
		<layer id="137" name="StatefulPartitionedCall/functional_1/tf_op_layer_ResizeBilinear/ResizeBilinear/StridedSlice_input_port_3/value" type="Const" version="opset1">
			<data element_type="i64" offset="225352" shape="1" size="8"/>
			<output>
				<port id="0" precision="I64">
					<dim>1</dim>
				</port>
			</output>
		</layer>
		<layer id="138" name="StatefulPartitionedCall/functional_1/tf_op_layer_ResizeBilinear/ResizeBilinear/StridedSlice" type="StridedSlice" version="opset1">
			<data begin_mask="0" ellipsis_mask="0" end_mask="0" new_axis_mask="0" shrink_axis_mask="0"/>
			<input>
				<port id="0" precision="I64">
					<dim>4</dim>
				</port>
				<port id="1" precision="I64">
					<dim>1</dim>
				</port>
				<port id="2" precision="I64">
					<dim>1</dim>
				</port>
				<port id="3" precision="I64">
					<dim>1</dim>
				</port>
			</input>
			<output>
				<port id="4" precision="I64">
					<dim>2</dim>
				</port>
			</output>
		</layer>
		<layer id="139" name="625" type="Convert" version="opset1">
			<data destination_type="f32"/>
			<input>
				<port id="0" precision="I64">
					<dim>2</dim>
				</port>
			</input>
			<output>
				<port id="1" precision="FP32">
					<dim>2</dim>
				</port>
			</output>
		</layer>
		<layer id="140" name="StatefulPartitionedCall/functional_1/tf_op_layer_ResizeBilinear/ResizeBilinear/Div" type="Divide" version="opset1">
			<data auto_broadcast="numpy" m_pythondiv="true"/>
			<input>
				<port id="0" precision="FP32">
					<dim>2</dim>
				</port>
				<port id="1" precision="FP32">
					<dim>2</dim>
				</port>
			</input>
			<output>
				<port id="2" precision="FP32">
					<dim>2</dim>
				</port>
			</output>
		</layer>
		<layer id="141" name="1118817932" type="Const" version="opset1">
			<data element_type="i64" offset="15168128" shape="2" size="16"/>
			<output>
				<port id="0" precision="I64">
					<dim>2</dim>
				</port>
			</output>
		</layer>
		<layer id="142" name="StatefulPartitionedCall/functional_1/tf_op_layer_ResizeBilinear/ResizeBilinear" type="Interpolate" version="opset4">
			<data antialias="false" coordinate_transformation_mode="half_pixel" cube_coeff="-0.75" mode="linear_onnx" nearest_mode="round_prefer_floor" pads_begin="0, 0, 0, 0" pads_end="0, 0, 0, 0" shape_calculation_mode="sizes"/>
			<input>
				<port id="0" precision="FP32">
					<dim>1</dim>
					<dim>128</dim>
					<dim>13</dim>
					<dim>13</dim>
				</port>
				<port id="1" precision="I64">
					<dim>2</dim>
				</port>
				<port id="2" precision="FP32">
					<dim>2</dim>
				</port>
				<port id="3" precision="I64">
					<dim>2</dim>
				</port>
			</input>
			<output>
				<port id="4" names="StatefulPartitionedCall/functional_1/tf_op_layer_ResizeBilinear/ResizeBilinear:0" precision="FP32">
					<dim>1</dim>
					<dim>128</dim>
					<dim>26</dim>
					<dim>26</dim>
				</port>
			</output>
		</layer>
		<layer id="143" name="StatefulPartitionedCall/functional_1/tf_op_layer_concat_6/concat_6" type="Concat" version="opset1">
			<data axis="1"/>
			<input>
				<port id="0" precision="FP32">
					<dim>1</dim>
					<dim>128</dim>
					<dim>26</dim>
					<dim>26</dim>
				</port>
				<port id="1" precision="FP32">
					<dim>1</dim>
					<dim>256</dim>
					<dim>26</dim>
					<dim>26</dim>
				</port>
			</input>
			<output>
				<port id="2" names="StatefulPartitionedCall/functional_1/tf_op_layer_concat_6/concat_6:0" precision="FP32">
					<dim>1</dim>
					<dim>384</dim>
					<dim>26</dim>
					<dim>26</dim>
				</port>
			</output>
		</layer>
		<layer id="144" name="StatefulPartitionedCall/functional_1/batch_normalization_18/FusedBatchNormV3/mean/Fused_Mul__copy" type="Const" version="opset1">
			<data element_type="f32" offset="15168144" shape="256, 384, 3, 3" size="3538944"/>
			<output>
				<port id="0" names="StatefulPartitionedCall/functional_1/conv2d_19/Conv2D/ReadVariableOp:0" precision="FP32">
					<dim>256</dim>
					<dim>384</dim>
					<dim>3</dim>
					<dim>3</dim>
				</port>
			</output>
		</layer>
		<layer id="145" name="StatefulPartitionedCall/functional_1/conv2d_19/Conv2D" type="Convolution" version="opset1">
			<data auto_pad="same_upper" dilations="1, 1" pads_begin="1, 1" pads_end="1, 1" strides="1, 1"/>
			<input>
				<port id="0" precision="FP32">
					<dim>1</dim>
					<dim>384</dim>
					<dim>26</dim>
					<dim>26</dim>
				</port>
				<port id="1" precision="FP32">
					<dim>256</dim>
					<dim>384</dim>
					<dim>3</dim>
					<dim>3</dim>
				</port>
			</input>
			<output>
				<port id="2" precision="FP32">
					<dim>1</dim>
					<dim>256</dim>
					<dim>26</dim>
					<dim>26</dim>
				</port>
			</output>
		</layer>
		<layer id="146" name="data_add_82938298" type="Const" version="opset1">
			<data element_type="f32" offset="18707088" shape="1, 256, 1, 1" size="1024"/>
			<output>
				<port id="0" precision="FP32">
					<dim>1</dim>
					<dim>256</dim>
					<dim>1</dim>
					<dim>1</dim>
				</port>
			</output>
		</layer>
		<layer id="147" name="StatefulPartitionedCall/functional_1/batch_normalization_18/FusedBatchNormV3/variance/Fused_Add_" type="Add" version="opset1">
			<data auto_broadcast="numpy"/>
			<input>
				<port id="0" precision="FP32">
					<dim>1</dim>
					<dim>256</dim>
					<dim>26</dim>
					<dim>26</dim>
				</port>
				<port id="1" precision="FP32">
					<dim>1</dim>
					<dim>256</dim>
					<dim>1</dim>
					<dim>1</dim>
				</port>
			</input>
			<output>
				<port id="2" names="StatefulPartitionedCall/functional_1/batch_normalization_18/FusedBatchNormV3:0" precision="FP32">
					<dim>1</dim>
					<dim>256</dim>
					<dim>26</dim>
					<dim>26</dim>
				</port>
			</output>
		</layer>
		<layer id="148" name="StatefulPartitionedCall/functional_1/tf_op_layer_LeakyRelu_18/LeakyRelu_18/weights1234117554" type="Const" version="opset1">
			<data element_type="f32" offset="3652" shape="1" size="4"/>
			<output>
				<port id="0" precision="FP32">
					<dim>1</dim>
				</port>
			</output>
		</layer>
		<layer id="149" name="StatefulPartitionedCall/functional_1/tf_op_layer_LeakyRelu_18/LeakyRelu_18" type="PReLU" version="opset1">
			<input>
				<port id="0" precision="FP32">
					<dim>1</dim>
					<dim>256</dim>
					<dim>26</dim>
					<dim>26</dim>
				</port>
				<port id="1" precision="FP32">
					<dim>1</dim>
				</port>
			</input>
			<output>
				<port id="2" names="StatefulPartitionedCall/functional_1/tf_op_layer_LeakyRelu_18/LeakyRelu_18:0" precision="FP32">
					<dim>1</dim>
					<dim>256</dim>
					<dim>26</dim>
					<dim>26</dim>
				</port>
			</output>
		</layer>
		<layer id="150" name="StatefulPartitionedCall/functional_1/conv2d_20/Conv2D/ReadVariableOp" type="Const" version="opset1">
			<data element_type="f32" offset="18708112" shape="45, 256, 1, 1" size="46080"/>
			<output>
				<port id="0" names="StatefulPartitionedCall/functional_1/conv2d_20/Conv2D/ReadVariableOp:0" precision="FP32">
					<dim>45</dim>
					<dim>256</dim>
					<dim>1</dim>
					<dim>1</dim>
				</port>
			</output>
		</layer>
		<layer id="151" name="StatefulPartitionedCall/functional_1/conv2d_20/Conv2D" type="Convolution" version="opset1">
			<data auto_pad="same_upper" dilations="1, 1" pads_begin="0, 0" pads_end="0, 0" strides="1, 1"/>
			<input>
				<port id="0" precision="FP32">
					<dim>1</dim>
					<dim>256</dim>
					<dim>26</dim>
					<dim>26</dim>
				</port>
				<port id="1" precision="FP32">
					<dim>45</dim>
					<dim>256</dim>
					<dim>1</dim>
					<dim>1</dim>
				</port>
			</input>
			<output>
				<port id="2" names="StatefulPartitionedCall/functional_1/conv2d_20/Conv2D:0" precision="FP32">
					<dim>1</dim>
					<dim>45</dim>
					<dim>26</dim>
					<dim>26</dim>
				</port>
			</output>
		</layer>
		<layer id="152" name="StatefulPartitionedCall/functional_1/conv2d_20/BiasAdd/ReadVariableOp" type="Const" version="opset1">
			<data element_type="f32" offset="18754192" shape="1, 45, 1, 1" size="180"/>
			<output>
				<port id="0" names="StatefulPartitionedCall/functional_1/conv2d_20/BiasAdd/ReadVariableOp:0" precision="FP32">
					<dim>1</dim>
					<dim>45</dim>
					<dim>1</dim>
					<dim>1</dim>
				</port>
			</output>
		</layer>
		<layer id="153" name="StatefulPartitionedCall/functional_1/conv2d_20/BiasAdd/Add" type="Add" version="opset1">
			<data auto_broadcast="numpy"/>
			<input>
				<port id="0" precision="FP32">
					<dim>1</dim>
					<dim>45</dim>
					<dim>26</dim>
					<dim>26</dim>
				</port>
				<port id="1" precision="FP32">
					<dim>1</dim>
					<dim>45</dim>
					<dim>1</dim>
					<dim>1</dim>
				</port>
			</input>
			<output>
				<port id="2" precision="FP32">
					<dim>1</dim>
					<dim>45</dim>
					<dim>26</dim>
					<dim>26</dim>
				</port>
			</output>
		</layer>
		<layer id="154" name="StatefulPartitionedCall/functional_1/conv2d_20/BiasAdd/Add/Transpose/value1065517605" type="Const" version="opset1">
			<data element_type="i64" offset="18754372" shape="4" size="32"/>
			<output>
				<port id="0" precision="I64">
					<dim>4</dim>
				</port>
			</output>
		</layer>
		<layer id="155" name="StatefulPartitionedCall/functional_1/conv2d_20/BiasAdd/Add/Transpose" type="Transpose" version="opset1">
			<input>
				<port id="0" precision="FP32">
					<dim>1</dim>
					<dim>45</dim>
					<dim>26</dim>
					<dim>26</dim>
				</port>
				<port id="1" precision="I64">
					<dim>4</dim>
				</port>
			</input>
			<output>
				<port id="2" names="StatefulPartitionedCall/functional_1/conv2d_20/BiasAdd:0" precision="FP32">
					<dim>1</dim>
					<dim>26</dim>
					<dim>26</dim>
					<dim>45</dim>
				</port>
			</output>
		</layer>
		<layer id="156" name="StatefulPartitionedCall/functional_1/tf_op_layer_Shape/Shape" type="ShapeOf" version="opset3">
			<data output_type="i32"/>
			<input>
				<port id="0" precision="FP32">
					<dim>1</dim>
					<dim>45</dim>
					<dim>26</dim>
					<dim>26</dim>
				</port>
			</input>
			<output>
				<port id="1" precision="I32">
					<dim>4</dim>
				</port>
			</output>
		</layer>
		<layer id="157" name="StatefulPartitionedCall/functional_1/tf_op_layer_Shape/Shape/GatherNCHWtoNHWC_input_port_1/value1086218028" type="Const" version="opset1">
			<data element_type="i32" offset="15168104" shape="4" size="16"/>
			<output>
				<port id="0" precision="I32">
					<dim>4</dim>
				</port>
			</output>
		</layer>
		<layer id="158" name="StatefulPartitionedCall/functional_1/tf_op_layer_Shape/Shape/GatherNCHWtoNHWC_input_port_2/value1086417695" type="Const" version="opset1">
			<data element_type="i64" offset="15168088" shape="" size="8"/>
			<output>
				<port id="0" precision="I64"/>
			</output>
		</layer>
		<layer id="159" name="StatefulPartitionedCall/functional_1/tf_op_layer_Shape/Shape/GatherNCHWtoNHWC" type="Gather" version="opset7">
			<data batch_dims="0"/>
			<input>
				<port id="0" precision="I32">
					<dim>4</dim>
				</port>
				<port id="1" precision="I32">
					<dim>4</dim>
				</port>
				<port id="2" precision="I64"/>
			</input>
			<output>
				<port id="3" names="StatefulPartitionedCall/functional_1/tf_op_layer_Shape/Shape:0" precision="I32">
					<dim>4</dim>
				</port>
			</output>
		</layer>
		<layer id="160" name="StatefulPartitionedCall/functional_1/tf_op_layer_strided_slice/strided_slice/begin" type="Const" version="opset1">
			<data element_type="i64" offset="15168088" shape="1" size="8"/>
			<output>
				<port id="0" names="StatefulPartitionedCall/functional_1/tf_op_layer_strided_slice/strided_slice/begin:0" precision="I64">
					<dim>1</dim>
				</port>
			</output>
		</layer>
		<layer id="161" name="StatefulPartitionedCall/functional_1/tf_op_layer_strided_slice/strided_slice/end" type="Const" version="opset1">
			<data element_type="i64" offset="225352" shape="1" size="8"/>
			<output>
				<port id="0" names="StatefulPartitionedCall/functional_1/tf_op_layer_strided_slice/strided_slice/end:0" precision="I64">
					<dim>1</dim>
				</port>
			</output>
		</layer>
		<layer id="162" name="StatefulPartitionedCall/functional_1/tf_op_layer_strided_slice/strided_slice/strides" type="Const" version="opset1">
			<data element_type="i64" offset="225352" shape="1" size="8"/>
			<output>
				<port id="0" names="StatefulPartitionedCall/functional_1/tf_op_layer_strided_slice/strided_slice/strides:0" precision="I64">
					<dim>1</dim>
				</port>
			</output>
		</layer>
		<layer id="163" name="StatefulPartitionedCall/functional_1/tf_op_layer_strided_slice/strided_slice" type="StridedSlice" version="opset1">
			<data begin_mask="0" ellipsis_mask="0" end_mask="0" new_axis_mask="0" shrink_axis_mask="1"/>
			<input>
				<port id="0" precision="I32">
					<dim>4</dim>
				</port>
				<port id="1" precision="I64">
					<dim>1</dim>
				</port>
				<port id="2" precision="I64">
					<dim>1</dim>
				</port>
				<port id="3" precision="I64">
					<dim>1</dim>
				</port>
			</input>
			<output>
				<port id="4" names="StatefulPartitionedCall/functional_1/tf_op_layer_strided_slice/strided_slice:0" precision="I32"/>
			</output>
		</layer>
		<layer id="164" name="StatefulPartitionedCall/functional_1/tf_op_layer_Reshape/shape/Reshape/shape/Unsqueeze_input_port_1/value" type="Const" version="opset1">
			<data element_type="i64" offset="15168088" shape="1" size="8"/>
			<output>
				<port id="0" precision="I64">
					<dim>1</dim>
				</port>
			</output>
		</layer>
		<layer id="165" name="StatefulPartitionedCall/functional_1/tf_op_layer_Reshape/shape/Reshape/shape/Unsqueeze" type="Unsqueeze" version="opset1">
			<input>
				<port id="0" precision="I32"/>
				<port id="1" precision="I64">
					<dim>1</dim>
				</port>
			</input>
			<output>
				<port id="2" precision="I32">
					<dim>1</dim>
				</port>
			</output>
		</layer>
		<layer id="166" name="StatefulPartitionedCall/functional_1/tf_op_layer_Reshape/shape/Reshape/shape/Unsqueeze737" type="Const" version="opset1">
			<data element_type="i32" offset="18754404" shape="1" size="4"/>
			<output>
				<port id="0" precision="I32">
					<dim>1</dim>
				</port>
			</output>
		</layer>
		<layer id="167" name="StatefulPartitionedCall/functional_1/tf_op_layer_Reshape/shape/Reshape/shape/Unsqueeze739" type="Const" version="opset1">
			<data element_type="i32" offset="18754404" shape="1" size="4"/>
			<output>
				<port id="0" precision="I32">
					<dim>1</dim>
				</port>
			</output>
		</layer>
		<layer id="168" name="StatefulPartitionedCall/functional_1/tf_op_layer_Reshape/shape/Reshape/shape/Unsqueeze741" type="Const" version="opset1">
			<data element_type="i32" offset="18754408" shape="1" size="4"/>
			<output>
				<port id="0" precision="I32">
					<dim>1</dim>
				</port>
			</output>
		</layer>
		<layer id="169" name="StatefulPartitionedCall/functional_1/tf_op_layer_Reshape/shape/Reshape/shape/Unsqueeze743" type="Const" version="opset1">
			<data element_type="i32" offset="18754412" shape="1" size="4"/>
			<output>
				<port id="0" precision="I32">
					<dim>1</dim>
				</port>
			</output>
		</layer>
		<layer id="170" name="StatefulPartitionedCall/functional_1/tf_op_layer_Reshape/shape/Reshape/shape" type="Concat" version="opset1">
			<data axis="0"/>
			<input>
				<port id="0" precision="I32">
					<dim>1</dim>
				</port>
				<port id="1" precision="I32">
					<dim>1</dim>
				</port>
				<port id="2" precision="I32">
					<dim>1</dim>
				</port>
				<port id="3" precision="I32">
					<dim>1</dim>
				</port>
				<port id="4" precision="I32">
					<dim>1</dim>
				</port>
			</input>
			<output>
				<port id="5" precision="I32">
					<dim>5</dim>
				</port>
			</output>
		</layer>
		<layer id="171" name="StatefulPartitionedCall/functional_1/tf_op_layer_Reshape/Reshape/Cast_1" type="Convert" version="opset1">
			<data destination_type="i64"/>
			<input>
				<port id="0" precision="I32">
					<dim>5</dim>
				</port>
			</input>
			<output>
				<port id="1" names="StatefulPartitionedCall/functional_1/tf_op_layer_Reshape/shape/Reshape/shape:0" precision="I64">
					<dim>5</dim>
				</port>
			</output>
		</layer>
		<layer id="172" name="StatefulPartitionedCall/functional_1/tf_op_layer_Reshape/Reshape" type="Reshape" version="opset1">
			<data special_zero="false"/>
			<input>
				<port id="0" precision="FP32">
					<dim>1</dim>
					<dim>26</dim>
					<dim>26</dim>
					<dim>45</dim>
				</port>
				<port id="1" precision="I64">
					<dim>5</dim>
				</port>
			</input>
			<output>
				<port id="2" precision="FP32">
					<dim>1</dim>
					<dim>26</dim>
					<dim>26</dim>
					<dim>3</dim>
					<dim>15</dim>
				</port>
			</output>
		</layer>
		<layer id="173" name="StatefulPartitionedCall/functional_1/tf_op_layer_Reshape/Reshape/Transpose/value1067918097" type="Const" version="opset1">
			<data element_type="i64" offset="18754416" shape="5" size="40"/>
			<output>
				<port id="0" precision="I64">
					<dim>5</dim>
				</port>
			</output>
		</layer>
		<layer id="174" name="StatefulPartitionedCall/functional_1/tf_op_layer_Reshape/Reshape/Transpose" type="Transpose" version="opset1">
			<input>
				<port id="0" precision="FP32">
					<dim>1</dim>
					<dim>26</dim>
					<dim>26</dim>
					<dim>3</dim>
					<dim>15</dim>
				</port>
				<port id="1" precision="I64">
					<dim>5</dim>
				</port>
			</input>
			<output>
				<port id="2" names="StatefulPartitionedCall/functional_1/tf_op_layer_Reshape/Reshape:0" precision="FP32">
					<dim>1</dim>
					<dim>15</dim>
					<dim>26</dim>
					<dim>26</dim>
					<dim>3</dim>
				</port>
			</output>
		</layer>
		<layer id="175" name="1116817644" type="Const" version="opset1">
			<data element_type="i64" offset="225352" shape="" size="8"/>
			<output>
				<port id="0" precision="I64"/>
			</output>
		</layer>
		<layer id="176" name="StatefulPartitionedCall/functional_1/tf_op_layer_split_3/split_3/size_splits" type="Const" version="opset1">
			<data element_type="i64" offset="18754456" shape="4" size="32"/>
			<output>
				<port id="0" names="StatefulPartitionedCall/functional_1/tf_op_layer_split_3/split_3/size_splits:0" precision="I64">
					<dim>4</dim>
				</port>
			</output>
		</layer>
		<layer id="177" name="StatefulPartitionedCall/functional_1/tf_op_layer_split_3/split_3" type="VariadicSplit" version="opset1">
			<input>
				<port id="0" precision="FP32">
					<dim>1</dim>
					<dim>15</dim>
					<dim>26</dim>
					<dim>26</dim>
					<dim>3</dim>
				</port>
				<port id="1" precision="I64"/>
				<port id="2" precision="I64">
					<dim>4</dim>
				</port>
			</input>
			<output>
				<port id="3" names="StatefulPartitionedCall/functional_1/tf_op_layer_split_3/split_3:0" precision="FP32">
					<dim>1</dim>
					<dim>2</dim>
					<dim>26</dim>
					<dim>26</dim>
					<dim>3</dim>
				</port>
				<port id="4" names="StatefulPartitionedCall/functional_1/tf_op_layer_split_3/split_3:1" precision="FP32">
					<dim>1</dim>
					<dim>2</dim>
					<dim>26</dim>
					<dim>26</dim>
					<dim>3</dim>
				</port>
				<port id="5" names="StatefulPartitionedCall/functional_1/tf_op_layer_split_3/split_3:2" precision="FP32">
					<dim>1</dim>
					<dim>1</dim>
					<dim>26</dim>
					<dim>26</dim>
					<dim>3</dim>
				</port>
				<port id="6" names="StatefulPartitionedCall/functional_1/tf_op_layer_split_3/split_3:3" precision="FP32">
					<dim>1</dim>
					<dim>10</dim>
					<dim>26</dim>
					<dim>26</dim>
					<dim>3</dim>
				</port>
			</output>
		</layer>
		<layer id="178" name="StatefulPartitionedCall/functional_1/tf_op_layer_Sigmoid/Sigmoid" type="Sigmoid" version="opset1">
			<input>
				<port id="0" precision="FP32">
					<dim>1</dim>
					<dim>2</dim>
					<dim>26</dim>
					<dim>26</dim>
					<dim>3</dim>
				</port>
			</input>
			<output>
				<port id="1" names="StatefulPartitionedCall/functional_1/tf_op_layer_Sigmoid/Sigmoid:0" precision="FP32">
					<dim>1</dim>
					<dim>2</dim>
					<dim>26</dim>
					<dim>26</dim>
					<dim>3</dim>
				</port>
			</output>
		</layer>
		<layer id="179" name="StatefulPartitionedCall/functional_1/tf_op_layer_Mul/Mul/y" type="Const" version="opset1">
			<data element_type="f32" offset="18754488" shape="1, 1, 1, 1, 1" size="4"/>
			<output>
				<port id="0" names="StatefulPartitionedCall/functional_1/tf_op_layer_Mul/Mul/y:0" precision="FP32">
					<dim>1</dim>
					<dim>1</dim>
					<dim>1</dim>
					<dim>1</dim>
					<dim>1</dim>
				</port>
			</output>
		</layer>
		<layer id="180" name="StatefulPartitionedCall/functional_1/tf_op_layer_Mul/Mul" type="Multiply" version="opset1">
			<data auto_broadcast="numpy"/>
			<input>
				<port id="0" precision="FP32">
					<dim>1</dim>
					<dim>2</dim>
					<dim>26</dim>
					<dim>26</dim>
					<dim>3</dim>
				</port>
				<port id="1" precision="FP32">
					<dim>1</dim>
					<dim>1</dim>
					<dim>1</dim>
					<dim>1</dim>
					<dim>1</dim>
				</port>
			</input>
			<output>
				<port id="2" names="StatefulPartitionedCall/functional_1/tf_op_layer_Mul/Mul:0" precision="FP32">
					<dim>1</dim>
					<dim>2</dim>
					<dim>26</dim>
					<dim>26</dim>
					<dim>3</dim>
				</port>
			</output>
		</layer>
		<layer id="181" name="StatefulPartitionedCall/functional_1/tf_op_layer_Sub/Sub/y" type="Const" version="opset1">
			<data element_type="f32" offset="18754492" shape="1, 1, 1, 1, 1" size="4"/>
			<output>
				<port id="0" names="StatefulPartitionedCall/functional_1/tf_op_layer_Sub/Sub/y:0" precision="FP32">
					<dim>1</dim>
					<dim>1</dim>
					<dim>1</dim>
					<dim>1</dim>
					<dim>1</dim>
				</port>
			</output>
		</layer>
		<layer id="182" name="StatefulPartitionedCall/functional_1/tf_op_layer_Sub/Sub" type="Add" version="opset1">
			<data auto_broadcast="numpy"/>
			<input>
				<port id="0" precision="FP32">
					<dim>1</dim>
					<dim>2</dim>
					<dim>26</dim>
					<dim>26</dim>
					<dim>3</dim>
				</port>
				<port id="1" precision="FP32">
					<dim>1</dim>
					<dim>1</dim>
					<dim>1</dim>
					<dim>1</dim>
					<dim>1</dim>
				</port>
			</input>
			<output>
				<port id="2" names="StatefulPartitionedCall/functional_1/tf_op_layer_Sub/Sub:0" precision="FP32">
					<dim>1</dim>
					<dim>2</dim>
					<dim>26</dim>
					<dim>26</dim>
					<dim>3</dim>
				</port>
			</output>
		</layer>
		<layer id="183" name="StatefulPartitionedCall/functional_1/tf_op_layer_Tile/Tile/input" type="Const" version="opset1">
			<data element_type="i32" offset="18754496" shape="1, 26, 26, 1, 2" size="5408"/>
			<output>
				<port id="0" names="StatefulPartitionedCall/functional_1/tf_op_layer_Tile/Tile/input:0" precision="I32">
					<dim>1</dim>
					<dim>26</dim>
					<dim>26</dim>
					<dim>1</dim>
					<dim>2</dim>
				</port>
			</output>
		</layer>
		<layer id="184" name="StatefulPartitionedCall/functional_1/tf_op_layer_Tile/multiples/Tile/multiples/Unsqueeze_input_port_1/value" type="Const" version="opset1">
			<data element_type="i64" offset="15168088" shape="1" size="8"/>
			<output>
				<port id="0" precision="I64">
					<dim>1</dim>
				</port>
			</output>
		</layer>
		<layer id="185" name="StatefulPartitionedCall/functional_1/tf_op_layer_Tile/multiples/Tile/multiples/Unsqueeze" type="Unsqueeze" version="opset1">
			<input>
				<port id="0" precision="I32"/>
				<port id="1" precision="I64">
					<dim>1</dim>
				</port>
			</input>
			<output>
				<port id="2" precision="I32">
					<dim>1</dim>
				</port>
			</output>
		</layer>
		<layer id="186" name="StatefulPartitionedCall/functional_1/tf_op_layer_Tile/multiples/Tile/multiples/Unsqueeze663" type="Const" version="opset1">
			<data element_type="i32" offset="18759904" shape="1" size="4"/>
			<output>
				<port id="0" precision="I32">
					<dim>1</dim>
				</port>
			</output>
		</layer>
		<layer id="187" name="StatefulPartitionedCall/functional_1/tf_op_layer_Tile/multiples/Tile/multiples/Unsqueeze665" type="Const" version="opset1">
			<data element_type="i32" offset="18759904" shape="1" size="4"/>
			<output>
				<port id="0" precision="I32">
					<dim>1</dim>
				</port>
			</output>
		</layer>
		<layer id="188" name="StatefulPartitionedCall/functional_1/tf_op_layer_Tile/multiples/Tile/multiples/Unsqueeze667" type="Const" version="opset1">
			<data element_type="i32" offset="18754408" shape="1" size="4"/>
			<output>
				<port id="0" precision="I32">
					<dim>1</dim>
				</port>
			</output>
		</layer>
		<layer id="189" name="StatefulPartitionedCall/functional_1/tf_op_layer_Tile/multiples/Tile/multiples/Unsqueeze669" type="Const" version="opset1">
			<data element_type="i32" offset="18759904" shape="1" size="4"/>
			<output>
				<port id="0" precision="I32">
					<dim>1</dim>
				</port>
			</output>
		</layer>
		<layer id="190" name="StatefulPartitionedCall/functional_1/tf_op_layer_Tile/multiples/Tile/multiples" type="Concat" version="opset1">
			<data axis="0"/>
			<input>
				<port id="0" precision="I32">
					<dim>1</dim>
				</port>
				<port id="1" precision="I32">
					<dim>1</dim>
				</port>
				<port id="2" precision="I32">
					<dim>1</dim>
				</port>
				<port id="3" precision="I32">
					<dim>1</dim>
				</port>
				<port id="4" precision="I32">
					<dim>1</dim>
				</port>
			</input>
			<output>
				<port id="5" precision="I32">
					<dim>5</dim>
				</port>
			</output>
		</layer>
		<layer id="191" name="18111" type="Convert" version="opset1">
			<data destination_type="i64"/>
			<input>
				<port id="0" precision="I32">
					<dim>5</dim>
				</port>
			</input>
			<output>
				<port id="1" names="StatefulPartitionedCall/functional_1/tf_op_layer_Tile/multiples/Tile/multiples:0" precision="I64">
					<dim>5</dim>
				</port>
			</output>
		</layer>
		<layer id="192" name="StatefulPartitionedCall/functional_1/tf_op_layer_Tile/Tile" type="Tile" version="opset1">
			<input>
				<port id="0" precision="I32">
					<dim>1</dim>
					<dim>26</dim>
					<dim>26</dim>
					<dim>1</dim>
					<dim>2</dim>
				</port>
				<port id="1" precision="I64">
					<dim>5</dim>
				</port>
			</input>
			<output>
				<port id="2" names="StatefulPartitionedCall/functional_1/tf_op_layer_Tile/Tile:0" precision="I32">
					<dim>1</dim>
					<dim>26</dim>
					<dim>26</dim>
					<dim>3</dim>
					<dim>2</dim>
				</port>
			</output>
		</layer>
		<layer id="193" name="StatefulPartitionedCall/functional_1/tf_op_layer_Cast/Cast" type="Convert" version="opset1">
			<data destination_type="f32"/>
			<input>
				<port id="0" precision="I32">
					<dim>1</dim>
					<dim>26</dim>
					<dim>26</dim>
					<dim>3</dim>
					<dim>2</dim>
				</port>
			</input>
			<output>
				<port id="1" precision="FP32">
					<dim>1</dim>
					<dim>26</dim>
					<dim>26</dim>
					<dim>3</dim>
					<dim>2</dim>
				</port>
			</output>
		</layer>
		<layer id="194" name="1123617620" type="Const" version="opset1">
			<data element_type="i64" offset="18754416" shape="5" size="40"/>
			<output>
				<port id="0" precision="I64">
					<dim>5</dim>
				</port>
			</output>
		</layer>
		<layer id="195" name="StatefulPartitionedCall/functional_1/tf_op_layer_AddV2/AddV2/TransposeNHWCtoNCHW" type="Transpose" version="opset1">
			<input>
				<port id="0" precision="FP32">
					<dim>1</dim>
					<dim>26</dim>
					<dim>26</dim>
					<dim>3</dim>
					<dim>2</dim>
				</port>
				<port id="1" precision="I64">
					<dim>5</dim>
				</port>
			</input>
			<output>
				<port id="2" names="StatefulPartitionedCall/functional_1/tf_op_layer_Cast/Cast:0" precision="FP32">
					<dim>1</dim>
					<dim>2</dim>
					<dim>26</dim>
					<dim>26</dim>
					<dim>3</dim>
				</port>
			</output>
		</layer>
		<layer id="196" name="StatefulPartitionedCall/functional_1/tf_op_layer_AddV2/AddV2" type="Add" version="opset1">
			<data auto_broadcast="numpy"/>
			<input>
				<port id="0" precision="FP32">
					<dim>1</dim>
					<dim>2</dim>
					<dim>26</dim>
					<dim>26</dim>
					<dim>3</dim>
				</port>
				<port id="1" precision="FP32">
					<dim>1</dim>
					<dim>2</dim>
					<dim>26</dim>
					<dim>26</dim>
					<dim>3</dim>
				</port>
			</input>
			<output>
				<port id="2" names="StatefulPartitionedCall/functional_1/tf_op_layer_AddV2/AddV2:0" precision="FP32">
					<dim>1</dim>
					<dim>2</dim>
					<dim>26</dim>
					<dim>26</dim>
					<dim>3</dim>
				</port>
			</output>
		</layer>
		<layer id="197" name="StatefulPartitionedCall/functional_1/tf_op_layer_Mul_1/Mul_1/y" type="Const" version="opset1">
			<data element_type="f32" offset="18759908" shape="1, 1, 1, 1, 1" size="4"/>
			<output>
				<port id="0" names="StatefulPartitionedCall/functional_1/tf_op_layer_Mul_1/Mul_1/y:0" precision="FP32">
					<dim>1</dim>
					<dim>1</dim>
					<dim>1</dim>
					<dim>1</dim>
					<dim>1</dim>
				</port>
			</output>
		</layer>
		<layer id="198" name="StatefulPartitionedCall/functional_1/tf_op_layer_Mul_1/Mul_1" type="Multiply" version="opset1">
			<data auto_broadcast="numpy"/>
			<input>
				<port id="0" precision="FP32">
					<dim>1</dim>
					<dim>2</dim>
					<dim>26</dim>
					<dim>26</dim>
					<dim>3</dim>
				</port>
				<port id="1" precision="FP32">
					<dim>1</dim>
					<dim>1</dim>
					<dim>1</dim>
					<dim>1</dim>
					<dim>1</dim>
				</port>
			</input>
			<output>
				<port id="2" names="StatefulPartitionedCall/functional_1/tf_op_layer_Mul_1/Mul_1:0" precision="FP32">
					<dim>1</dim>
					<dim>2</dim>
					<dim>26</dim>
					<dim>26</dim>
					<dim>3</dim>
				</port>
			</output>
		</layer>
		<layer id="199" name="StatefulPartitionedCall/functional_1/tf_op_layer_Exp/Exp" type="Exp" version="opset1">
			<input>
				<port id="0" precision="FP32">
					<dim>1</dim>
					<dim>2</dim>
					<dim>26</dim>
					<dim>26</dim>
					<dim>3</dim>
				</port>
			</input>
			<output>
				<port id="1" names="StatefulPartitionedCall/functional_1/tf_op_layer_Exp/Exp:0" precision="FP32">
					<dim>1</dim>
					<dim>2</dim>
					<dim>26</dim>
					<dim>26</dim>
					<dim>3</dim>
				</port>
			</output>
		</layer>
		<layer id="200" name="StatefulPartitionedCall/functional_1/tf_op_layer_Mul_2/Mul_2/y" type="Const" version="opset1">
			<data element_type="f32" offset="18759912" shape="1, 2, 1, 1, 3" size="24"/>
			<output>
				<port id="0" names="StatefulPartitionedCall/functional_1/tf_op_layer_Mul_2/Mul_2/y:0" precision="FP32">
					<dim>1</dim>
					<dim>2</dim>
					<dim>1</dim>
					<dim>1</dim>
					<dim>3</dim>
				</port>
			</output>
		</layer>
		<layer id="201" name="StatefulPartitionedCall/functional_1/tf_op_layer_Mul_2/Mul_2" type="Multiply" version="opset1">
			<data auto_broadcast="numpy"/>
			<input>
				<port id="0" precision="FP32">
					<dim>1</dim>
					<dim>2</dim>
					<dim>26</dim>
					<dim>26</dim>
					<dim>3</dim>
				</port>
				<port id="1" precision="FP32">
					<dim>1</dim>
					<dim>2</dim>
					<dim>1</dim>
					<dim>1</dim>
					<dim>3</dim>
				</port>
			</input>
			<output>
				<port id="2" names="StatefulPartitionedCall/functional_1/tf_op_layer_Mul_2/Mul_2:0" precision="FP32">
					<dim>1</dim>
					<dim>2</dim>
					<dim>26</dim>
					<dim>26</dim>
					<dim>3</dim>
				</port>
			</output>
		</layer>
		<layer id="202" name="StatefulPartitionedCall/functional_1/tf_op_layer_concat_7/concat_7" type="Concat" version="opset1">
			<data axis="1"/>
			<input>
				<port id="0" precision="FP32">
					<dim>1</dim>
					<dim>2</dim>
					<dim>26</dim>
					<dim>26</dim>
					<dim>3</dim>
				</port>
				<port id="1" precision="FP32">
					<dim>1</dim>
					<dim>2</dim>
					<dim>26</dim>
					<dim>26</dim>
					<dim>3</dim>
				</port>
			</input>
			<output>
				<port id="2" precision="FP32">
					<dim>1</dim>
					<dim>4</dim>
					<dim>26</dim>
					<dim>26</dim>
					<dim>3</dim>
				</port>
			</output>
		</layer>
		<layer id="203" name="StatefulPartitionedCall/functional_1/tf_op_layer_concat_7/concat_7/Transpose/value1067117755" type="Const" version="opset1">
			<data element_type="i64" offset="18759936" shape="5" size="40"/>
			<output>
				<port id="0" precision="I64">
					<dim>5</dim>
				</port>
			</output>
		</layer>
		<layer id="204" name="StatefulPartitionedCall/functional_1/tf_op_layer_concat_7/concat_7/Transpose" type="Transpose" version="opset1">
			<input>
				<port id="0" precision="FP32">
					<dim>1</dim>
					<dim>4</dim>
					<dim>26</dim>
					<dim>26</dim>
					<dim>3</dim>
				</port>
				<port id="1" precision="I64">
					<dim>5</dim>
				</port>
			</input>
			<output>
				<port id="2" names="StatefulPartitionedCall/functional_1/tf_op_layer_concat_7/concat_7:0" precision="FP32">
					<dim>1</dim>
					<dim>26</dim>
					<dim>26</dim>
					<dim>3</dim>
					<dim>4</dim>
				</port>
			</output>
		</layer>
		<layer id="205" name="StatefulPartitionedCall/functional_1/tf_op_layer_Reshape_2/shape/Reshape_2/shape/Unsqueeze_input_port_1/value" type="Const" version="opset1">
			<data element_type="i64" offset="15168088" shape="1" size="8"/>
			<output>
				<port id="0" precision="I64">
					<dim>1</dim>
				</port>
			</output>
		</layer>
		<layer id="206" name="StatefulPartitionedCall/functional_1/tf_op_layer_Reshape_2/shape/Reshape_2/shape/Unsqueeze" type="Unsqueeze" version="opset1">
			<input>
				<port id="0" precision="I32"/>
				<port id="1" precision="I64">
					<dim>1</dim>
				</port>
			</input>
			<output>
				<port id="2" precision="I32">
					<dim>1</dim>
				</port>
			</output>
		</layer>
		<layer id="207" name="StatefulPartitionedCall/functional_1/tf_op_layer_Reshape_2/shape/Reshape_2/shape/Unsqueeze656" type="Const" version="opset1">
			<data element_type="i32" offset="18759976" shape="1" size="4"/>
			<output>
				<port id="0" precision="I32">
					<dim>1</dim>
				</port>
			</output>
		</layer>
		<layer id="208" name="StatefulPartitionedCall/functional_1/tf_op_layer_Reshape_2/shape/Reshape_2/shape/Unsqueeze658" type="Const" version="opset1">
			<data element_type="i32" offset="18759980" shape="1" size="4"/>
			<output>
				<port id="0" precision="I32">
					<dim>1</dim>
				</port>
			</output>
		</layer>
		<layer id="209" name="StatefulPartitionedCall/functional_1/tf_op_layer_Reshape_2/shape/Reshape_2/shape" type="Concat" version="opset1">
			<data axis="0"/>
			<input>
				<port id="0" precision="I32">
					<dim>1</dim>
				</port>
				<port id="1" precision="I32">
					<dim>1</dim>
				</port>
				<port id="2" precision="I32">
					<dim>1</dim>
				</port>
			</input>
			<output>
				<port id="3" precision="I32">
					<dim>3</dim>
				</port>
			</output>
		</layer>
		<layer id="210" name="StatefulPartitionedCall/functional_1/tf_op_layer_Reshape_2/Reshape_2/Cast_1" type="Convert" version="opset1">
			<data destination_type="i64"/>
			<input>
				<port id="0" precision="I32">
					<dim>3</dim>
				</port>
			</input>
			<output>
				<port id="1" names="StatefulPartitionedCall/functional_1/tf_op_layer_Reshape_2/shape/Reshape_2/shape:0" precision="I64">
					<dim>3</dim>
				</port>
			</output>
		</layer>
		<layer id="211" name="StatefulPartitionedCall/functional_1/tf_op_layer_Reshape_2/Reshape_2" type="Reshape" version="opset1">
			<data special_zero="false"/>
			<input>
				<port id="0" precision="FP32">
					<dim>1</dim>
					<dim>26</dim>
					<dim>26</dim>
					<dim>3</dim>
					<dim>4</dim>
				</port>
				<port id="1" precision="I64">
					<dim>3</dim>
				</port>
			</input>
			<output>
				<port id="2" names="StatefulPartitionedCall/functional_1/tf_op_layer_Reshape_2/Reshape_2:0" precision="FP32">
					<dim>1</dim>
					<dim>2028</dim>
					<dim>4</dim>
				</port>
			</output>
		</layer>
		<layer id="212" name="StatefulPartitionedCall/functional_1/batch_normalization_16/FusedBatchNormV3/mean/Fused_Mul__copy" type="Const" version="opset1">
			<data element_type="f32" offset="18759984" shape="512, 256, 3, 3" size="4718592"/>
			<output>
				<port id="0" names="StatefulPartitionedCall/functional_1/conv2d_16/Conv2D/ReadVariableOp:0" precision="FP32">
					<dim>512</dim>
					<dim>256</dim>
					<dim>3</dim>
					<dim>3</dim>
				</port>
			</output>
		</layer>
		<layer id="213" name="StatefulPartitionedCall/functional_1/conv2d_16/Conv2D" type="Convolution" version="opset1">
			<data auto_pad="same_upper" dilations="1, 1" pads_begin="1, 1" pads_end="1, 1" strides="1, 1"/>
			<input>
				<port id="0" precision="FP32">
					<dim>1</dim>
					<dim>256</dim>
					<dim>13</dim>
					<dim>13</dim>
				</port>
				<port id="1" precision="FP32">
					<dim>512</dim>
					<dim>256</dim>
					<dim>3</dim>
					<dim>3</dim>
				</port>
			</input>
			<output>
				<port id="2" precision="FP32">
					<dim>1</dim>
					<dim>512</dim>
					<dim>13</dim>
					<dim>13</dim>
				</port>
			</output>
		</layer>
		<layer id="214" name="data_add_82778282" type="Const" version="opset1">
			<data element_type="f32" offset="23478576" shape="1, 512, 1, 1" size="2048"/>
			<output>
				<port id="0" precision="FP32">
					<dim>1</dim>
					<dim>512</dim>
					<dim>1</dim>
					<dim>1</dim>
				</port>
			</output>
		</layer>
		<layer id="215" name="StatefulPartitionedCall/functional_1/batch_normalization_16/FusedBatchNormV3/variance/Fused_Add_" type="Add" version="opset1">
			<data auto_broadcast="numpy"/>
			<input>
				<port id="0" precision="FP32">
					<dim>1</dim>
					<dim>512</dim>
					<dim>13</dim>
					<dim>13</dim>
				</port>
				<port id="1" precision="FP32">
					<dim>1</dim>
					<dim>512</dim>
					<dim>1</dim>
					<dim>1</dim>
				</port>
			</input>
			<output>
				<port id="2" names="StatefulPartitionedCall/functional_1/batch_normalization_16/FusedBatchNormV3:0" precision="FP32">
					<dim>1</dim>
					<dim>512</dim>
					<dim>13</dim>
					<dim>13</dim>
				</port>
			</output>
		</layer>
		<layer id="216" name="StatefulPartitionedCall/functional_1/tf_op_layer_LeakyRelu_16/LeakyRelu_16/weights1237317566" type="Const" version="opset1">
			<data element_type="f32" offset="3652" shape="1" size="4"/>
			<output>
				<port id="0" precision="FP32">
					<dim>1</dim>
				</port>
			</output>
		</layer>
		<layer id="217" name="StatefulPartitionedCall/functional_1/tf_op_layer_LeakyRelu_16/LeakyRelu_16" type="PReLU" version="opset1">
			<input>
				<port id="0" precision="FP32">
					<dim>1</dim>
					<dim>512</dim>
					<dim>13</dim>
					<dim>13</dim>
				</port>
				<port id="1" precision="FP32">
					<dim>1</dim>
				</port>
			</input>
			<output>
				<port id="2" names="StatefulPartitionedCall/functional_1/tf_op_layer_LeakyRelu_16/LeakyRelu_16:0" precision="FP32">
					<dim>1</dim>
					<dim>512</dim>
					<dim>13</dim>
					<dim>13</dim>
				</port>
			</output>
		</layer>
		<layer id="218" name="StatefulPartitionedCall/functional_1/conv2d_17/Conv2D/ReadVariableOp" type="Const" version="opset1">
			<data element_type="f32" offset="23480624" shape="45, 512, 1, 1" size="92160"/>
			<output>
				<port id="0" names="StatefulPartitionedCall/functional_1/conv2d_17/Conv2D/ReadVariableOp:0" precision="FP32">
					<dim>45</dim>
					<dim>512</dim>
					<dim>1</dim>
					<dim>1</dim>
				</port>
			</output>
		</layer>
		<layer id="219" name="StatefulPartitionedCall/functional_1/conv2d_17/Conv2D" type="Convolution" version="opset1">
			<data auto_pad="same_upper" dilations="1, 1" pads_begin="0, 0" pads_end="0, 0" strides="1, 1"/>
			<input>
				<port id="0" precision="FP32">
					<dim>1</dim>
					<dim>512</dim>
					<dim>13</dim>
					<dim>13</dim>
				</port>
				<port id="1" precision="FP32">
					<dim>45</dim>
					<dim>512</dim>
					<dim>1</dim>
					<dim>1</dim>
				</port>
			</input>
			<output>
				<port id="2" names="StatefulPartitionedCall/functional_1/conv2d_17/Conv2D:0" precision="FP32">
					<dim>1</dim>
					<dim>45</dim>
					<dim>13</dim>
					<dim>13</dim>
				</port>
			</output>
		</layer>
		<layer id="220" name="StatefulPartitionedCall/functional_1/conv2d_17/BiasAdd/ReadVariableOp" type="Const" version="opset1">
			<data element_type="f32" offset="23572784" shape="1, 45, 1, 1" size="180"/>
			<output>
				<port id="0" names="StatefulPartitionedCall/functional_1/conv2d_17/BiasAdd/ReadVariableOp:0" precision="FP32">
					<dim>1</dim>
					<dim>45</dim>
					<dim>1</dim>
					<dim>1</dim>
				</port>
			</output>
		</layer>
		<layer id="221" name="StatefulPartitionedCall/functional_1/conv2d_17/BiasAdd/Add" type="Add" version="opset1">
			<data auto_broadcast="numpy"/>
			<input>
				<port id="0" precision="FP32">
					<dim>1</dim>
					<dim>45</dim>
					<dim>13</dim>
					<dim>13</dim>
				</port>
				<port id="1" precision="FP32">
					<dim>1</dim>
					<dim>45</dim>
					<dim>1</dim>
					<dim>1</dim>
				</port>
			</input>
			<output>
				<port id="2" precision="FP32">
					<dim>1</dim>
					<dim>45</dim>
					<dim>13</dim>
					<dim>13</dim>
				</port>
			</output>
		</layer>
		<layer id="222" name="StatefulPartitionedCall/functional_1/conv2d_17/BiasAdd/Add/Transpose/value1066317500" type="Const" version="opset1">
			<data element_type="i64" offset="18754372" shape="4" size="32"/>
			<output>
				<port id="0" precision="I64">
					<dim>4</dim>
				</port>
			</output>
		</layer>
		<layer id="223" name="StatefulPartitionedCall/functional_1/conv2d_17/BiasAdd/Add/Transpose" type="Transpose" version="opset1">
			<input>
				<port id="0" precision="FP32">
					<dim>1</dim>
					<dim>45</dim>
					<dim>13</dim>
					<dim>13</dim>
				</port>
				<port id="1" precision="I64">
					<dim>4</dim>
				</port>
			</input>
			<output>
				<port id="2" names="StatefulPartitionedCall/functional_1/conv2d_17/BiasAdd:0" precision="FP32">
					<dim>1</dim>
					<dim>13</dim>
					<dim>13</dim>
					<dim>45</dim>
				</port>
			</output>
		</layer>
		<layer id="224" name="StatefulPartitionedCall/functional_1/tf_op_layer_Shape_1/Shape_1" type="ShapeOf" version="opset3">
			<data output_type="i32"/>
			<input>
				<port id="0" precision="FP32">
					<dim>1</dim>
					<dim>45</dim>
					<dim>13</dim>
					<dim>13</dim>
				</port>
			</input>
			<output>
				<port id="1" precision="I32">
					<dim>4</dim>
				</port>
			</output>
		</layer>
		<layer id="225" name="StatefulPartitionedCall/functional_1/tf_op_layer_Shape_1/Shape_1/GatherNCHWtoNHWC_input_port_1/value1086817938" type="Const" version="opset1">
			<data element_type="i32" offset="15168104" shape="4" size="16"/>
			<output>
				<port id="0" precision="I32">
					<dim>4</dim>
				</port>
			</output>
		</layer>
		<layer id="226" name="StatefulPartitionedCall/functional_1/tf_op_layer_Shape_1/Shape_1/GatherNCHWtoNHWC_input_port_2/value1087017974" type="Const" version="opset1">
			<data element_type="i64" offset="15168088" shape="" size="8"/>
			<output>
				<port id="0" precision="I64"/>
			</output>
		</layer>
		<layer id="227" name="StatefulPartitionedCall/functional_1/tf_op_layer_Shape_1/Shape_1/GatherNCHWtoNHWC" type="Gather" version="opset7">
			<data batch_dims="0"/>
			<input>
				<port id="0" precision="I32">
					<dim>4</dim>
				</port>
				<port id="1" precision="I32">
					<dim>4</dim>
				</port>
				<port id="2" precision="I64"/>
			</input>
			<output>
				<port id="3" names="StatefulPartitionedCall/functional_1/tf_op_layer_Shape_1/Shape_1:0" precision="I32">
					<dim>4</dim>
				</port>
			</output>
		</layer>
		<layer id="228" name="StatefulPartitionedCall/functional_1/tf_op_layer_strided_slice_1/strided_slice_1/begin" type="Const" version="opset1">
			<data element_type="i64" offset="15168088" shape="1" size="8"/>
			<output>
				<port id="0" names="StatefulPartitionedCall/functional_1/tf_op_layer_strided_slice_1/strided_slice_1/begin:0" precision="I64">
					<dim>1</dim>
				</port>
			</output>
		</layer>
		<layer id="229" name="StatefulPartitionedCall/functional_1/tf_op_layer_strided_slice_1/strided_slice_1/end" type="Const" version="opset1">
			<data element_type="i64" offset="225352" shape="1" size="8"/>
			<output>
				<port id="0" names="StatefulPartitionedCall/functional_1/tf_op_layer_strided_slice_1/strided_slice_1/end:0" precision="I64">
					<dim>1</dim>
				</port>
			</output>
		</layer>
		<layer id="230" name="StatefulPartitionedCall/functional_1/tf_op_layer_strided_slice_1/strided_slice_1/strides" type="Const" version="opset1">
			<data element_type="i64" offset="225352" shape="1" size="8"/>
			<output>
				<port id="0" names="StatefulPartitionedCall/functional_1/tf_op_layer_strided_slice_1/strided_slice_1/strides:0" precision="I64">
					<dim>1</dim>
				</port>
			</output>
		</layer>
		<layer id="231" name="StatefulPartitionedCall/functional_1/tf_op_layer_strided_slice_1/strided_slice_1" type="StridedSlice" version="opset1">
			<data begin_mask="0" ellipsis_mask="0" end_mask="0" new_axis_mask="0" shrink_axis_mask="1"/>
			<input>
				<port id="0" precision="I32">
					<dim>4</dim>
				</port>
				<port id="1" precision="I64">
					<dim>1</dim>
				</port>
				<port id="2" precision="I64">
					<dim>1</dim>
				</port>
				<port id="3" precision="I64">
					<dim>1</dim>
				</port>
			</input>
			<output>
				<port id="4" names="StatefulPartitionedCall/functional_1/tf_op_layer_strided_slice_1/strided_slice_1:0" precision="I32"/>
			</output>
		</layer>
		<layer id="232" name="StatefulPartitionedCall/functional_1/tf_op_layer_Reshape_3/shape/Reshape_3/shape/Unsqueeze_input_port_1/value" type="Const" version="opset1">
			<data element_type="i64" offset="15168088" shape="1" size="8"/>
			<output>
				<port id="0" precision="I64">
					<dim>1</dim>
				</port>
			</output>
		</layer>
		<layer id="233" name="StatefulPartitionedCall/functional_1/tf_op_layer_Reshape_3/shape/Reshape_3/shape/Unsqueeze" type="Unsqueeze" version="opset1">
			<input>
				<port id="0" precision="I32"/>
				<port id="1" precision="I64">
					<dim>1</dim>
				</port>
			</input>
			<output>
				<port id="2" precision="I32">
					<dim>1</dim>
				</port>
			</output>
		</layer>
		<layer id="234" name="StatefulPartitionedCall/functional_1/tf_op_layer_Reshape_3/shape/Reshape_3/shape/Unsqueeze687" type="Const" version="opset1">
			<data element_type="i32" offset="23572964" shape="1" size="4"/>
			<output>
				<port id="0" precision="I32">
					<dim>1</dim>
				</port>
			</output>
		</layer>
		<layer id="235" name="StatefulPartitionedCall/functional_1/tf_op_layer_Reshape_3/shape/Reshape_3/shape/Unsqueeze689" type="Const" version="opset1">
			<data element_type="i32" offset="23572964" shape="1" size="4"/>
			<output>
				<port id="0" precision="I32">
					<dim>1</dim>
				</port>
			</output>
		</layer>
		<layer id="236" name="StatefulPartitionedCall/functional_1/tf_op_layer_Reshape_3/shape/Reshape_3/shape/Unsqueeze691" type="Const" version="opset1">
			<data element_type="i32" offset="18754408" shape="1" size="4"/>
			<output>
				<port id="0" precision="I32">
					<dim>1</dim>
				</port>
			</output>
		</layer>
		<layer id="237" name="StatefulPartitionedCall/functional_1/tf_op_layer_Reshape_3/shape/Reshape_3/shape/Unsqueeze693" type="Const" version="opset1">
			<data element_type="i32" offset="18754412" shape="1" size="4"/>
			<output>
				<port id="0" precision="I32">
					<dim>1</dim>
				</port>
			</output>
		</layer>
		<layer id="238" name="StatefulPartitionedCall/functional_1/tf_op_layer_Reshape_3/shape/Reshape_3/shape" type="Concat" version="opset1">
			<data axis="0"/>
			<input>
				<port id="0" precision="I32">
					<dim>1</dim>
				</port>
				<port id="1" precision="I32">
					<dim>1</dim>
				</port>
				<port id="2" precision="I32">
					<dim>1</dim>
				</port>
				<port id="3" precision="I32">
					<dim>1</dim>
				</port>
				<port id="4" precision="I32">
					<dim>1</dim>
				</port>
			</input>
			<output>
				<port id="5" precision="I32">
					<dim>5</dim>
				</port>
			</output>
		</layer>
		<layer id="239" name="StatefulPartitionedCall/functional_1/tf_op_layer_Reshape_3/Reshape_3/Cast_1" type="Convert" version="opset1">
			<data destination_type="i64"/>
			<input>
				<port id="0" precision="I32">
					<dim>5</dim>
				</port>
			</input>
			<output>
				<port id="1" names="StatefulPartitionedCall/functional_1/tf_op_layer_Reshape_3/shape/Reshape_3/shape:0" precision="I64">
					<dim>5</dim>
				</port>
			</output>
		</layer>
		<layer id="240" name="StatefulPartitionedCall/functional_1/tf_op_layer_Reshape_3/Reshape_3" type="Reshape" version="opset1">
			<data special_zero="false"/>
			<input>
				<port id="0" precision="FP32">
					<dim>1</dim>
					<dim>13</dim>
					<dim>13</dim>
					<dim>45</dim>
				</port>
				<port id="1" precision="I64">
					<dim>5</dim>
				</port>
			</input>
			<output>
				<port id="2" precision="FP32">
					<dim>1</dim>
					<dim>13</dim>
					<dim>13</dim>
					<dim>3</dim>
					<dim>15</dim>
				</port>
			</output>
		</layer>
		<layer id="241" name="StatefulPartitionedCall/functional_1/tf_op_layer_Reshape_3/Reshape_3/Transpose/value1068317542" type="Const" version="opset1">
			<data element_type="i64" offset="18754416" shape="5" size="40"/>
			<output>
				<port id="0" precision="I64">
					<dim>5</dim>
				</port>
			</output>
		</layer>
		<layer id="242" name="StatefulPartitionedCall/functional_1/tf_op_layer_Reshape_3/Reshape_3/Transpose" type="Transpose" version="opset1">
			<input>
				<port id="0" precision="FP32">
					<dim>1</dim>
					<dim>13</dim>
					<dim>13</dim>
					<dim>3</dim>
					<dim>15</dim>
				</port>
				<port id="1" precision="I64">
					<dim>5</dim>
				</port>
			</input>
			<output>
				<port id="2" names="StatefulPartitionedCall/functional_1/tf_op_layer_Reshape_3/Reshape_3:0" precision="FP32">
					<dim>1</dim>
					<dim>15</dim>
					<dim>13</dim>
					<dim>13</dim>
					<dim>3</dim>
				</port>
			</output>
		</layer>
		<layer id="243" name="1118217494" type="Const" version="opset1">
			<data element_type="i64" offset="225352" shape="" size="8"/>
			<output>
				<port id="0" precision="I64"/>
			</output>
		</layer>
		<layer id="244" name="StatefulPartitionedCall/functional_1/tf_op_layer_split_4/split_4/size_splits" type="Const" version="opset1">
			<data element_type="i64" offset="18754456" shape="4" size="32"/>
			<output>
				<port id="0" names="StatefulPartitionedCall/functional_1/tf_op_layer_split_4/split_4/size_splits:0" precision="I64">
					<dim>4</dim>
				</port>
			</output>
		</layer>
		<layer id="245" name="StatefulPartitionedCall/functional_1/tf_op_layer_split_4/split_4" type="VariadicSplit" version="opset1">
			<input>
				<port id="0" precision="FP32">
					<dim>1</dim>
					<dim>15</dim>
					<dim>13</dim>
					<dim>13</dim>
					<dim>3</dim>
				</port>
				<port id="1" precision="I64"/>
				<port id="2" precision="I64">
					<dim>4</dim>
				</port>
			</input>
			<output>
				<port id="3" names="StatefulPartitionedCall/functional_1/tf_op_layer_split_4/split_4:0" precision="FP32">
					<dim>1</dim>
					<dim>2</dim>
					<dim>13</dim>
					<dim>13</dim>
					<dim>3</dim>
				</port>
				<port id="4" names="StatefulPartitionedCall/functional_1/tf_op_layer_split_4/split_4:1" precision="FP32">
					<dim>1</dim>
					<dim>2</dim>
					<dim>13</dim>
					<dim>13</dim>
					<dim>3</dim>
				</port>
				<port id="5" names="StatefulPartitionedCall/functional_1/tf_op_layer_split_4/split_4:2" precision="FP32">
					<dim>1</dim>
					<dim>1</dim>
					<dim>13</dim>
					<dim>13</dim>
					<dim>3</dim>
				</port>
				<port id="6" names="StatefulPartitionedCall/functional_1/tf_op_layer_split_4/split_4:3" precision="FP32">
					<dim>1</dim>
					<dim>10</dim>
					<dim>13</dim>
					<dim>13</dim>
					<dim>3</dim>
				</port>
			</output>
		</layer>
		<layer id="246" name="StatefulPartitionedCall/functional_1/tf_op_layer_Sigmoid_3/Sigmoid_3" type="Sigmoid" version="opset1">
			<input>
				<port id="0" precision="FP32">
					<dim>1</dim>
					<dim>2</dim>
					<dim>13</dim>
					<dim>13</dim>
					<dim>3</dim>
				</port>
			</input>
			<output>
				<port id="1" names="StatefulPartitionedCall/functional_1/tf_op_layer_Sigmoid_3/Sigmoid_3:0" precision="FP32">
					<dim>1</dim>
					<dim>2</dim>
					<dim>13</dim>
					<dim>13</dim>
					<dim>3</dim>
				</port>
			</output>
		</layer>
		<layer id="247" name="StatefulPartitionedCall/functional_1/tf_op_layer_Mul_4/Mul_4/y" type="Const" version="opset1">
			<data element_type="f32" offset="18754488" shape="1, 1, 1, 1, 1" size="4"/>
			<output>
				<port id="0" names="StatefulPartitionedCall/functional_1/tf_op_layer_Mul_4/Mul_4/y:0" precision="FP32">
					<dim>1</dim>
					<dim>1</dim>
					<dim>1</dim>
					<dim>1</dim>
					<dim>1</dim>
				</port>
			</output>
		</layer>
		<layer id="248" name="StatefulPartitionedCall/functional_1/tf_op_layer_Mul_4/Mul_4" type="Multiply" version="opset1">
			<data auto_broadcast="numpy"/>
			<input>
				<port id="0" precision="FP32">
					<dim>1</dim>
					<dim>2</dim>
					<dim>13</dim>
					<dim>13</dim>
					<dim>3</dim>
				</port>
				<port id="1" precision="FP32">
					<dim>1</dim>
					<dim>1</dim>
					<dim>1</dim>
					<dim>1</dim>
					<dim>1</dim>
				</port>
			</input>
			<output>
				<port id="2" names="StatefulPartitionedCall/functional_1/tf_op_layer_Mul_4/Mul_4:0" precision="FP32">
					<dim>1</dim>
					<dim>2</dim>
					<dim>13</dim>
					<dim>13</dim>
					<dim>3</dim>
				</port>
			</output>
		</layer>
		<layer id="249" name="StatefulPartitionedCall/functional_1/tf_op_layer_Sub_1/Sub_1/y" type="Const" version="opset1">
			<data element_type="f32" offset="18754492" shape="1, 1, 1, 1, 1" size="4"/>
			<output>
				<port id="0" names="StatefulPartitionedCall/functional_1/tf_op_layer_Sub_1/Sub_1/y:0" precision="FP32">
					<dim>1</dim>
					<dim>1</dim>
					<dim>1</dim>
					<dim>1</dim>
					<dim>1</dim>
				</port>
			</output>
		</layer>
		<layer id="250" name="StatefulPartitionedCall/functional_1/tf_op_layer_Sub_1/Sub_1" type="Add" version="opset1">
			<data auto_broadcast="numpy"/>
			<input>
				<port id="0" precision="FP32">
					<dim>1</dim>
					<dim>2</dim>
					<dim>13</dim>
					<dim>13</dim>
					<dim>3</dim>
				</port>
				<port id="1" precision="FP32">
					<dim>1</dim>
					<dim>1</dim>
					<dim>1</dim>
					<dim>1</dim>
					<dim>1</dim>
				</port>
			</input>
			<output>
				<port id="2" names="StatefulPartitionedCall/functional_1/tf_op_layer_Sub_1/Sub_1:0" precision="FP32">
					<dim>1</dim>
					<dim>2</dim>
					<dim>13</dim>
					<dim>13</dim>
					<dim>3</dim>
				</port>
			</output>
		</layer>
		<layer id="251" name="StatefulPartitionedCall/functional_1/tf_op_layer_Tile_1/Tile_1/input" type="Const" version="opset1">
			<data element_type="i32" offset="23572968" shape="1, 13, 13, 1, 2" size="1352"/>
			<output>
				<port id="0" names="StatefulPartitionedCall/functional_1/tf_op_layer_Tile_1/Tile_1/input:0" precision="I32">
					<dim>1</dim>
					<dim>13</dim>
					<dim>13</dim>
					<dim>1</dim>
					<dim>2</dim>
				</port>
			</output>
		</layer>
		<layer id="252" name="StatefulPartitionedCall/functional_1/tf_op_layer_Tile_1/multiples/Tile_1/multiples/Unsqueeze_input_port_1/value" type="Const" version="opset1">
			<data element_type="i64" offset="15168088" shape="1" size="8"/>
			<output>
				<port id="0" precision="I64">
					<dim>1</dim>
				</port>
			</output>
		</layer>
		<layer id="253" name="StatefulPartitionedCall/functional_1/tf_op_layer_Tile_1/multiples/Tile_1/multiples/Unsqueeze" type="Unsqueeze" version="opset1">
			<input>
				<port id="0" precision="I32"/>
				<port id="1" precision="I64">
					<dim>1</dim>
				</port>
			</input>
			<output>
				<port id="2" precision="I32">
					<dim>1</dim>
				</port>
			</output>
		</layer>
		<layer id="254" name="StatefulPartitionedCall/functional_1/tf_op_layer_Tile_1/multiples/Tile_1/multiples/Unsqueeze719" type="Const" version="opset1">
			<data element_type="i32" offset="18759904" shape="1" size="4"/>
			<output>
				<port id="0" precision="I32">
					<dim>1</dim>
				</port>
			</output>
		</layer>
		<layer id="255" name="StatefulPartitionedCall/functional_1/tf_op_layer_Tile_1/multiples/Tile_1/multiples/Unsqueeze721" type="Const" version="opset1">
			<data element_type="i32" offset="18759904" shape="1" size="4"/>
			<output>
				<port id="0" precision="I32">
					<dim>1</dim>
				</port>
			</output>
		</layer>
		<layer id="256" name="StatefulPartitionedCall/functional_1/tf_op_layer_Tile_1/multiples/Tile_1/multiples/Unsqueeze723" type="Const" version="opset1">
			<data element_type="i32" offset="18754408" shape="1" size="4"/>
			<output>
				<port id="0" precision="I32">
					<dim>1</dim>
				</port>
			</output>
		</layer>
		<layer id="257" name="StatefulPartitionedCall/functional_1/tf_op_layer_Tile_1/multiples/Tile_1/multiples/Unsqueeze725" type="Const" version="opset1">
			<data element_type="i32" offset="18759904" shape="1" size="4"/>
			<output>
				<port id="0" precision="I32">
					<dim>1</dim>
				</port>
			</output>
		</layer>
		<layer id="258" name="StatefulPartitionedCall/functional_1/tf_op_layer_Tile_1/multiples/Tile_1/multiples" type="Concat" version="opset1">
			<data axis="0"/>
			<input>
				<port id="0" precision="I32">
					<dim>1</dim>
				</port>
				<port id="1" precision="I32">
					<dim>1</dim>
				</port>
				<port id="2" precision="I32">
					<dim>1</dim>
				</port>
				<port id="3" precision="I32">
					<dim>1</dim>
				</port>
				<port id="4" precision="I32">
					<dim>1</dim>
				</port>
			</input>
			<output>
				<port id="5" precision="I32">
					<dim>5</dim>
				</port>
			</output>
		</layer>
		<layer id="259" name="18115" type="Convert" version="opset1">
			<data destination_type="i64"/>
			<input>
				<port id="0" precision="I32">
					<dim>5</dim>
				</port>
			</input>
			<output>
				<port id="1" names="StatefulPartitionedCall/functional_1/tf_op_layer_Tile_1/multiples/Tile_1/multiples:0" precision="I64">
					<dim>5</dim>
				</port>
			</output>
		</layer>
		<layer id="260" name="StatefulPartitionedCall/functional_1/tf_op_layer_Tile_1/Tile_1" type="Tile" version="opset1">
			<input>
				<port id="0" precision="I32">
					<dim>1</dim>
					<dim>13</dim>
					<dim>13</dim>
					<dim>1</dim>
					<dim>2</dim>
				</port>
				<port id="1" precision="I64">
					<dim>5</dim>
				</port>
			</input>
			<output>
				<port id="2" names="StatefulPartitionedCall/functional_1/tf_op_layer_Tile_1/Tile_1:0" precision="I32">
					<dim>1</dim>
					<dim>13</dim>
					<dim>13</dim>
					<dim>3</dim>
					<dim>2</dim>
				</port>
			</output>
		</layer>
		<layer id="261" name="StatefulPartitionedCall/functional_1/tf_op_layer_Cast_1/Cast_1" type="Convert" version="opset1">
			<data destination_type="f32"/>
			<input>
				<port id="0" precision="I32">
					<dim>1</dim>
					<dim>13</dim>
					<dim>13</dim>
					<dim>3</dim>
					<dim>2</dim>
				</port>
			</input>
			<output>
				<port id="1" precision="FP32">
					<dim>1</dim>
					<dim>13</dim>
					<dim>13</dim>
					<dim>3</dim>
					<dim>2</dim>
				</port>
			</output>
		</layer>
		<layer id="262" name="1122417947" type="Const" version="opset1">
			<data element_type="i64" offset="18754416" shape="5" size="40"/>
			<output>
				<port id="0" precision="I64">
					<dim>5</dim>
				</port>
			</output>
		</layer>
		<layer id="263" name="StatefulPartitionedCall/functional_1/tf_op_layer_AddV2_1/AddV2_1/TransposeNHWCtoNCHW" type="Transpose" version="opset1">
			<input>
				<port id="0" precision="FP32">
					<dim>1</dim>
					<dim>13</dim>
					<dim>13</dim>
					<dim>3</dim>
					<dim>2</dim>
				</port>
				<port id="1" precision="I64">
					<dim>5</dim>
				</port>
			</input>
			<output>
				<port id="2" names="StatefulPartitionedCall/functional_1/tf_op_layer_Cast_1/Cast_1:0" precision="FP32">
					<dim>1</dim>
					<dim>2</dim>
					<dim>13</dim>
					<dim>13</dim>
					<dim>3</dim>
				</port>
			</output>
		</layer>
		<layer id="264" name="StatefulPartitionedCall/functional_1/tf_op_layer_AddV2_1/AddV2_1" type="Add" version="opset1">
			<data auto_broadcast="numpy"/>
			<input>
				<port id="0" precision="FP32">
					<dim>1</dim>
					<dim>2</dim>
					<dim>13</dim>
					<dim>13</dim>
					<dim>3</dim>
				</port>
				<port id="1" precision="FP32">
					<dim>1</dim>
					<dim>2</dim>
					<dim>13</dim>
					<dim>13</dim>
					<dim>3</dim>
				</port>
			</input>
			<output>
				<port id="2" names="StatefulPartitionedCall/functional_1/tf_op_layer_AddV2_1/AddV2_1:0" precision="FP32">
					<dim>1</dim>
					<dim>2</dim>
					<dim>13</dim>
					<dim>13</dim>
					<dim>3</dim>
				</port>
			</output>
		</layer>
		<layer id="265" name="StatefulPartitionedCall/functional_1/tf_op_layer_Mul_5/Mul_5/y" type="Const" version="opset1">
			<data element_type="f32" offset="23574320" shape="1, 1, 1, 1, 1" size="4"/>
			<output>
				<port id="0" names="StatefulPartitionedCall/functional_1/tf_op_layer_Mul_5/Mul_5/y:0" precision="FP32">
					<dim>1</dim>
					<dim>1</dim>
					<dim>1</dim>
					<dim>1</dim>
					<dim>1</dim>
				</port>
			</output>
		</layer>
		<layer id="266" name="StatefulPartitionedCall/functional_1/tf_op_layer_Mul_5/Mul_5" type="Multiply" version="opset1">
			<data auto_broadcast="numpy"/>
			<input>
				<port id="0" precision="FP32">
					<dim>1</dim>
					<dim>2</dim>
					<dim>13</dim>
					<dim>13</dim>
					<dim>3</dim>
				</port>
				<port id="1" precision="FP32">
					<dim>1</dim>
					<dim>1</dim>
					<dim>1</dim>
					<dim>1</dim>
					<dim>1</dim>
				</port>
			</input>
			<output>
				<port id="2" names="StatefulPartitionedCall/functional_1/tf_op_layer_Mul_5/Mul_5:0" precision="FP32">
					<dim>1</dim>
					<dim>2</dim>
					<dim>13</dim>
					<dim>13</dim>
					<dim>3</dim>
				</port>
			</output>
		</layer>
		<layer id="267" name="StatefulPartitionedCall/functional_1/tf_op_layer_Exp_1/Exp_1" type="Exp" version="opset1">
			<input>
				<port id="0" precision="FP32">
					<dim>1</dim>
					<dim>2</dim>
					<dim>13</dim>
					<dim>13</dim>
					<dim>3</dim>
				</port>
			</input>
			<output>
				<port id="1" names="StatefulPartitionedCall/functional_1/tf_op_layer_Exp_1/Exp_1:0" precision="FP32">
					<dim>1</dim>
					<dim>2</dim>
					<dim>13</dim>
					<dim>13</dim>
					<dim>3</dim>
				</port>
			</output>
		</layer>
		<layer id="268" name="StatefulPartitionedCall/functional_1/tf_op_layer_Mul_6/Mul_6/y" type="Const" version="opset1">
			<data element_type="f32" offset="23574324" shape="1, 2, 1, 1, 3" size="24"/>
			<output>
				<port id="0" names="StatefulPartitionedCall/functional_1/tf_op_layer_Mul_6/Mul_6/y:0" precision="FP32">
					<dim>1</dim>
					<dim>2</dim>
					<dim>1</dim>
					<dim>1</dim>
					<dim>3</dim>
				</port>
			</output>
		</layer>
		<layer id="269" name="StatefulPartitionedCall/functional_1/tf_op_layer_Mul_6/Mul_6" type="Multiply" version="opset1">
			<data auto_broadcast="numpy"/>
			<input>
				<port id="0" precision="FP32">
					<dim>1</dim>
					<dim>2</dim>
					<dim>13</dim>
					<dim>13</dim>
					<dim>3</dim>
				</port>
				<port id="1" precision="FP32">
					<dim>1</dim>
					<dim>2</dim>
					<dim>1</dim>
					<dim>1</dim>
					<dim>3</dim>
				</port>
			</input>
			<output>
				<port id="2" names="StatefulPartitionedCall/functional_1/tf_op_layer_Mul_6/Mul_6:0" precision="FP32">
					<dim>1</dim>
					<dim>2</dim>
					<dim>13</dim>
					<dim>13</dim>
					<dim>3</dim>
				</port>
			</output>
		</layer>
		<layer id="270" name="StatefulPartitionedCall/functional_1/tf_op_layer_concat_8/concat_8" type="Concat" version="opset1">
			<data axis="1"/>
			<input>
				<port id="0" precision="FP32">
					<dim>1</dim>
					<dim>2</dim>
					<dim>13</dim>
					<dim>13</dim>
					<dim>3</dim>
				</port>
				<port id="1" precision="FP32">
					<dim>1</dim>
					<dim>2</dim>
					<dim>13</dim>
					<dim>13</dim>
					<dim>3</dim>
				</port>
			</input>
			<output>
				<port id="2" precision="FP32">
					<dim>1</dim>
					<dim>4</dim>
					<dim>13</dim>
					<dim>13</dim>
					<dim>3</dim>
				</port>
			</output>
		</layer>
		<layer id="271" name="StatefulPartitionedCall/functional_1/tf_op_layer_concat_8/concat_8/Transpose/value1067517812" type="Const" version="opset1">
			<data element_type="i64" offset="18759936" shape="5" size="40"/>
			<output>
				<port id="0" precision="I64">
					<dim>5</dim>
				</port>
			</output>
		</layer>
		<layer id="272" name="StatefulPartitionedCall/functional_1/tf_op_layer_concat_8/concat_8/Transpose" type="Transpose" version="opset1">
			<input>
				<port id="0" precision="FP32">
					<dim>1</dim>
					<dim>4</dim>
					<dim>13</dim>
					<dim>13</dim>
					<dim>3</dim>
				</port>
				<port id="1" precision="I64">
					<dim>5</dim>
				</port>
			</input>
			<output>
				<port id="2" names="StatefulPartitionedCall/functional_1/tf_op_layer_concat_8/concat_8:0" precision="FP32">
					<dim>1</dim>
					<dim>13</dim>
					<dim>13</dim>
					<dim>3</dim>
					<dim>4</dim>
				</port>
			</output>
		</layer>
		<layer id="273" name="StatefulPartitionedCall/functional_1/tf_op_layer_Reshape_5/shape/Reshape_5/shape/Unsqueeze_input_port_1/value" type="Const" version="opset1">
			<data element_type="i64" offset="15168088" shape="1" size="8"/>
			<output>
				<port id="0" precision="I64">
					<dim>1</dim>
				</port>
			</output>
		</layer>
		<layer id="274" name="StatefulPartitionedCall/functional_1/tf_op_layer_Reshape_5/shape/Reshape_5/shape/Unsqueeze" type="Unsqueeze" version="opset1">
			<input>
				<port id="0" precision="I32"/>
				<port id="1" precision="I64">
					<dim>1</dim>
				</port>
			</input>
			<output>
				<port id="2" precision="I32">
					<dim>1</dim>
				</port>
			</output>
		</layer>
		<layer id="275" name="StatefulPartitionedCall/functional_1/tf_op_layer_Reshape_5/shape/Reshape_5/shape/Unsqueeze712" type="Const" version="opset1">
			<data element_type="i32" offset="18759976" shape="1" size="4"/>
			<output>
				<port id="0" precision="I32">
					<dim>1</dim>
				</port>
			</output>
		</layer>
		<layer id="276" name="StatefulPartitionedCall/functional_1/tf_op_layer_Reshape_5/shape/Reshape_5/shape/Unsqueeze714" type="Const" version="opset1">
			<data element_type="i32" offset="18759980" shape="1" size="4"/>
			<output>
				<port id="0" precision="I32">
					<dim>1</dim>
				</port>
			</output>
		</layer>
		<layer id="277" name="StatefulPartitionedCall/functional_1/tf_op_layer_Reshape_5/shape/Reshape_5/shape" type="Concat" version="opset1">
			<data axis="0"/>
			<input>
				<port id="0" precision="I32">
					<dim>1</dim>
				</port>
				<port id="1" precision="I32">
					<dim>1</dim>
				</port>
				<port id="2" precision="I32">
					<dim>1</dim>
				</port>
			</input>
			<output>
				<port id="3" precision="I32">
					<dim>3</dim>
				</port>
			</output>
		</layer>
		<layer id="278" name="StatefulPartitionedCall/functional_1/tf_op_layer_Reshape_5/Reshape_5/Cast_1" type="Convert" version="opset1">
			<data destination_type="i64"/>
			<input>
				<port id="0" precision="I32">
					<dim>3</dim>
				</port>
			</input>
			<output>
				<port id="1" names="StatefulPartitionedCall/functional_1/tf_op_layer_Reshape_5/shape/Reshape_5/shape:0" precision="I64">
					<dim>3</dim>
				</port>
			</output>
		</layer>
		<layer id="279" name="StatefulPartitionedCall/functional_1/tf_op_layer_Reshape_5/Reshape_5" type="Reshape" version="opset1">
			<data special_zero="false"/>
			<input>
				<port id="0" precision="FP32">
					<dim>1</dim>
					<dim>13</dim>
					<dim>13</dim>
					<dim>3</dim>
					<dim>4</dim>
				</port>
				<port id="1" precision="I64">
					<dim>3</dim>
				</port>
			</input>
			<output>
				<port id="2" names="StatefulPartitionedCall/functional_1/tf_op_layer_Reshape_5/Reshape_5:0" precision="FP32">
					<dim>1</dim>
					<dim>507</dim>
					<dim>4</dim>
				</port>
			</output>
		</layer>
		<layer id="280" name="StatefulPartitionedCall/functional_1/tf_op_layer_concat_9/concat_9" type="Concat" version="opset1">
			<data axis="1"/>
			<input>
				<port id="0" precision="FP32">
					<dim>1</dim>
					<dim>2028</dim>
					<dim>4</dim>
				</port>
				<port id="1" precision="FP32">
					<dim>1</dim>
					<dim>507</dim>
					<dim>4</dim>
				</port>
			</input>
			<output>
				<port id="2" names="StatefulPartitionedCall/functional_1/tf_op_layer_concat_9/concat_9:0" precision="FP32">
					<dim>1</dim>
					<dim>2535</dim>
					<dim>4</dim>
				</port>
			</output>
		</layer>
		<layer id="281" name="StatefulPartitionedCall/functional_1/tf_op_layer_Shape_2/Shape_2" type="ShapeOf" version="opset3">
			<data output_type="i32"/>
			<input>
				<port id="0" precision="FP32">
					<dim>1</dim>
					<dim>2535</dim>
					<dim>4</dim>
				</port>
			</input>
			<output>
				<port id="1" names="StatefulPartitionedCall/functional_1/tf_op_layer_Shape_2/Shape_2:0" precision="I32">
					<dim>3</dim>
				</port>
			</output>
		</layer>
		<layer id="282" name="StatefulPartitionedCall/functional_1/tf_op_layer_strided_slice_2/strided_slice_2/begin" type="Const" version="opset1">
			<data element_type="i64" offset="15168088" shape="1" size="8"/>
			<output>
				<port id="0" names="StatefulPartitionedCall/functional_1/tf_op_layer_strided_slice_2/strided_slice_2/begin:0" precision="I64">
					<dim>1</dim>
				</port>
			</output>
		</layer>
		<layer id="283" name="StatefulPartitionedCall/functional_1/tf_op_layer_strided_slice_2/strided_slice_2/end" type="Const" version="opset1">
			<data element_type="i64" offset="23574348" shape="1" size="8"/>
			<output>
				<port id="0" names="StatefulPartitionedCall/functional_1/tf_op_layer_strided_slice_2/strided_slice_2/end:0" precision="I64">
					<dim>1</dim>
				</port>
			</output>
		</layer>
		<layer id="284" name="StatefulPartitionedCall/functional_1/tf_op_layer_strided_slice_2/strided_slice_2/strides" type="Const" version="opset1">
			<data element_type="i64" offset="225352" shape="1" size="8"/>
			<output>
				<port id="0" names="StatefulPartitionedCall/functional_1/tf_op_layer_strided_slice_2/strided_slice_2/strides:0" precision="I64">
					<dim>1</dim>
				</port>
			</output>
		</layer>
		<layer id="285" name="StatefulPartitionedCall/functional_1/tf_op_layer_strided_slice_2/strided_slice_2" type="StridedSlice" version="opset1">
			<data begin_mask="0" ellipsis_mask="0" end_mask="0" new_axis_mask="0" shrink_axis_mask="0"/>
			<input>
				<port id="0" precision="I32">
					<dim>3</dim>
				</port>
				<port id="1" precision="I64">
					<dim>1</dim>
				</port>
				<port id="2" precision="I64">
					<dim>1</dim>
				</port>
				<port id="3" precision="I64">
					<dim>1</dim>
				</port>
			</input>
			<output>
				<port id="4" names="StatefulPartitionedCall/functional_1/tf_op_layer_strided_slice_2/strided_slice_2:0" precision="I32">
					<dim>2</dim>
				</port>
			</output>
		</layer>
		<layer id="286" name="StatefulPartitionedCall/functional_1/tf_op_layer_Prod/Prod/reduction_indices" type="Const" version="opset1">
			<data element_type="i64" offset="15168088" shape="1" size="8"/>
			<output>
				<port id="0" names="StatefulPartitionedCall/functional_1/tf_op_layer_Prod/Prod/reduction_indices:0" precision="I64">
					<dim>1</dim>
				</port>
			</output>
		</layer>
		<layer id="287" name="StatefulPartitionedCall/functional_1/tf_op_layer_Prod/Prod" type="ReduceProd" version="opset1">
			<data keep_dims="false"/>
			<input>
				<port id="0" precision="I32">
					<dim>2</dim>
				</port>
				<port id="1" precision="I64">
					<dim>1</dim>
				</port>
			</input>
			<output>
				<port id="2" names="StatefulPartitionedCall/functional_1/tf_op_layer_Prod/Prod:0" precision="I32"/>
			</output>
		</layer>
		<layer id="288" name="StatefulPartitionedCall/functional_1/tf_op_layer_concat_11/values_1/concat_11/values_1/Unsqueeze_input_port_1/value" type="Const" version="opset1">
			<data element_type="i64" offset="15168088" shape="1" size="8"/>
			<output>
				<port id="0" precision="I64">
					<dim>1</dim>
				</port>
			</output>
		</layer>
		<layer id="289" name="StatefulPartitionedCall/functional_1/tf_op_layer_concat_11/values_1/concat_11/values_1/Unsqueeze" type="Unsqueeze" version="opset1">
			<input>
				<port id="0" precision="I32"/>
				<port id="1" precision="I64">
					<dim>1</dim>
				</port>
			</input>
			<output>
				<port id="2" names="StatefulPartitionedCall/functional_1/tf_op_layer_concat_11/values_1/concat_11/values_1:0" precision="I32">
					<dim>1</dim>
				</port>
			</output>
		</layer>
		<layer id="290" name="StatefulPartitionedCall/functional_1/tf_op_layer_Shape_4/Shape_4" type="ShapeOf" version="opset3">
			<data output_type="i32"/>
			<input>
				<port id="0" precision="FP32">
					<dim>1</dim>
					<dim>2535</dim>
					<dim>4</dim>
				</port>
			</input>
			<output>
				<port id="1" names="StatefulPartitionedCall/functional_1/tf_op_layer_Shape_4/Shape_4:0" precision="I32">
					<dim>3</dim>
				</port>
			</output>
		</layer>
		<layer id="291" name="StatefulPartitionedCall/functional_1/tf_op_layer_strided_slice_4/strided_slice_4/begin" type="Const" version="opset1">
			<data element_type="i64" offset="23574348" shape="1" size="8"/>
			<output>
				<port id="0" names="StatefulPartitionedCall/functional_1/tf_op_layer_strided_slice_4/strided_slice_4/begin:0" precision="I64">
					<dim>1</dim>
				</port>
			</output>
		</layer>
		<layer id="292" name="StatefulPartitionedCall/functional_1/tf_op_layer_strided_slice_4/strided_slice_4/end" type="Const" version="opset1">
			<data element_type="i64" offset="15168088" shape="1" size="8"/>
			<output>
				<port id="0" names="StatefulPartitionedCall/functional_1/tf_op_layer_strided_slice_4/strided_slice_4/end:0" precision="I64">
					<dim>1</dim>
				</port>
			</output>
		</layer>
		<layer id="293" name="StatefulPartitionedCall/functional_1/tf_op_layer_strided_slice_4/strided_slice_4/strides" type="Const" version="opset1">
			<data element_type="i64" offset="225352" shape="1" size="8"/>
			<output>
				<port id="0" names="StatefulPartitionedCall/functional_1/tf_op_layer_strided_slice_4/strided_slice_4/strides:0" precision="I64">
					<dim>1</dim>
				</port>
			</output>
		</layer>
		<layer id="294" name="StatefulPartitionedCall/functional_1/tf_op_layer_strided_slice_4/strided_slice_4" type="StridedSlice" version="opset1">
			<data begin_mask="0" ellipsis_mask="0" end_mask="1" new_axis_mask="0" shrink_axis_mask="0"/>
			<input>
				<port id="0" precision="I32">
					<dim>3</dim>
				</port>
				<port id="1" precision="I64">
					<dim>1</dim>
				</port>
				<port id="2" precision="I64">
					<dim>1</dim>
				</port>
				<port id="3" precision="I64">
					<dim>1</dim>
				</port>
			</input>
			<output>
				<port id="4" names="StatefulPartitionedCall/functional_1/tf_op_layer_strided_slice_4/strided_slice_4:0" precision="I32">
					<dim>1</dim>
				</port>
			</output>
		</layer>
		<layer id="295" name="StatefulPartitionedCall/functional_1/tf_op_layer_concat_11/concat_11" type="Concat" version="opset1">
			<data axis="0"/>
			<input>
				<port id="0" precision="I32">
					<dim>1</dim>
				</port>
				<port id="1" precision="I32">
					<dim>1</dim>
				</port>
			</input>
			<output>
				<port id="2" precision="I32">
					<dim>2</dim>
				</port>
			</output>
		</layer>
		<layer id="296" name="StatefulPartitionedCall/functional_1/tf_op_layer_Reshape_6/Reshape_6/Cast_1" type="Convert" version="opset1">
			<data destination_type="i64"/>
			<input>
				<port id="0" precision="I32">
					<dim>2</dim>
				</port>
			</input>
			<output>
				<port id="1" names="StatefulPartitionedCall/functional_1/tf_op_layer_concat_11/concat_11:0" precision="I64">
					<dim>2</dim>
				</port>
			</output>
		</layer>
		<layer id="297" name="StatefulPartitionedCall/functional_1/tf_op_layer_Reshape_6/Reshape_6" type="Reshape" version="opset1">
			<data special_zero="false"/>
			<input>
				<port id="0" precision="FP32">
					<dim>1</dim>
					<dim>2535</dim>
					<dim>4</dim>
				</port>
				<port id="1" precision="I64">
					<dim>2</dim>
				</port>
			</input>
			<output>
				<port id="2" names="StatefulPartitionedCall/functional_1/tf_op_layer_Reshape_6/Reshape_6:0" precision="FP32">
					<dim>2535</dim>
					<dim>4</dim>
				</port>
			</output>
		</layer>
		<layer id="298" name="StatefulPartitionedCall/functional_1/tf_op_layer_Sigmoid_1/Sigmoid_1" type="Sigmoid" version="opset1">
			<input>
				<port id="0" precision="FP32">
					<dim>1</dim>
					<dim>1</dim>
					<dim>26</dim>
					<dim>26</dim>
					<dim>3</dim>
				</port>
			</input>
			<output>
				<port id="1" names="StatefulPartitionedCall/functional_1/tf_op_layer_Sigmoid_1/Sigmoid_1:0" precision="FP32">
					<dim>1</dim>
					<dim>1</dim>
					<dim>26</dim>
					<dim>26</dim>
					<dim>3</dim>
				</port>
			</output>
		</layer>
		<layer id="299" name="StatefulPartitionedCall/functional_1/tf_op_layer_Sigmoid_2/Sigmoid_2" type="Sigmoid" version="opset1">
			<input>
				<port id="0" precision="FP32">
					<dim>1</dim>
					<dim>10</dim>
					<dim>26</dim>
					<dim>26</dim>
					<dim>3</dim>
				</port>
			</input>
			<output>
				<port id="1" names="StatefulPartitionedCall/functional_1/tf_op_layer_Sigmoid_2/Sigmoid_2:0" precision="FP32">
					<dim>1</dim>
					<dim>10</dim>
					<dim>26</dim>
					<dim>26</dim>
					<dim>3</dim>
				</port>
			</output>
		</layer>
		<layer id="300" name="StatefulPartitionedCall/functional_1/tf_op_layer_Mul_3/Mul_3" type="Multiply" version="opset1">
			<data auto_broadcast="numpy"/>
			<input>
				<port id="0" precision="FP32">
					<dim>1</dim>
					<dim>1</dim>
					<dim>26</dim>
					<dim>26</dim>
					<dim>3</dim>
				</port>
				<port id="1" precision="FP32">
					<dim>1</dim>
					<dim>10</dim>
					<dim>26</dim>
					<dim>26</dim>
					<dim>3</dim>
				</port>
			</input>
			<output>
				<port id="2" precision="FP32">
					<dim>1</dim>
					<dim>10</dim>
					<dim>26</dim>
					<dim>26</dim>
					<dim>3</dim>
				</port>
			</output>
		</layer>
		<layer id="301" name="StatefulPartitionedCall/functional_1/tf_op_layer_Mul_3/Mul_3/Transpose/value1065918019" type="Const" version="opset1">
			<data element_type="i64" offset="18759936" shape="5" size="40"/>
			<output>
				<port id="0" precision="I64">
					<dim>5</dim>
				</port>
			</output>
		</layer>
		<layer id="302" name="StatefulPartitionedCall/functional_1/tf_op_layer_Mul_3/Mul_3/Transpose" type="Transpose" version="opset1">
			<input>
				<port id="0" precision="FP32">
					<dim>1</dim>
					<dim>10</dim>
					<dim>26</dim>
					<dim>26</dim>
					<dim>3</dim>
				</port>
				<port id="1" precision="I64">
					<dim>5</dim>
				</port>
			</input>
			<output>
				<port id="2" names="StatefulPartitionedCall/functional_1/tf_op_layer_Mul_3/Mul_3:0" precision="FP32">
					<dim>1</dim>
					<dim>26</dim>
					<dim>26</dim>
					<dim>3</dim>
					<dim>10</dim>
				</port>
			</output>
		</layer>
		<layer id="303" name="StatefulPartitionedCall/functional_1/tf_op_layer_Reshape_1/shape/Reshape_1/shape/Unsqueeze_input_port_1/value" type="Const" version="opset1">
			<data element_type="i64" offset="15168088" shape="1" size="8"/>
			<output>
				<port id="0" precision="I64">
					<dim>1</dim>
				</port>
			</output>
		</layer>
		<layer id="304" name="StatefulPartitionedCall/functional_1/tf_op_layer_Reshape_1/shape/Reshape_1/shape/Unsqueeze" type="Unsqueeze" version="opset1">
			<input>
				<port id="0" precision="I32"/>
				<port id="1" precision="I64">
					<dim>1</dim>
				</port>
			</input>
			<output>
				<port id="2" precision="I32">
					<dim>1</dim>
				</port>
			</output>
		</layer>
		<layer id="305" name="StatefulPartitionedCall/functional_1/tf_op_layer_Reshape_1/shape/Reshape_1/shape/Unsqueeze680" type="Const" version="opset1">
			<data element_type="i32" offset="18759976" shape="1" size="4"/>
			<output>
				<port id="0" precision="I32">
					<dim>1</dim>
				</port>
			</output>
		</layer>
		<layer id="306" name="StatefulPartitionedCall/functional_1/tf_op_layer_Reshape_1/shape/Reshape_1/shape/Unsqueeze682" type="Const" version="opset1">
			<data element_type="i32" offset="23574356" shape="1" size="4"/>
			<output>
				<port id="0" precision="I32">
					<dim>1</dim>
				</port>
			</output>
		</layer>
		<layer id="307" name="StatefulPartitionedCall/functional_1/tf_op_layer_Reshape_1/shape/Reshape_1/shape" type="Concat" version="opset1">
			<data axis="0"/>
			<input>
				<port id="0" precision="I32">
					<dim>1</dim>
				</port>
				<port id="1" precision="I32">
					<dim>1</dim>
				</port>
				<port id="2" precision="I32">
					<dim>1</dim>
				</port>
			</input>
			<output>
				<port id="3" precision="I32">
					<dim>3</dim>
				</port>
			</output>
		</layer>
		<layer id="308" name="StatefulPartitionedCall/functional_1/tf_op_layer_Reshape_1/Reshape_1/Cast_1" type="Convert" version="opset1">
			<data destination_type="i64"/>
			<input>
				<port id="0" precision="I32">
					<dim>3</dim>
				</port>
			</input>
			<output>
				<port id="1" names="StatefulPartitionedCall/functional_1/tf_op_layer_Reshape_1/shape/Reshape_1/shape:0" precision="I64">
					<dim>3</dim>
				</port>
			</output>
		</layer>
		<layer id="309" name="StatefulPartitionedCall/functional_1/tf_op_layer_Reshape_1/Reshape_1" type="Reshape" version="opset1">
			<data special_zero="false"/>
			<input>
				<port id="0" precision="FP32">
					<dim>1</dim>
					<dim>26</dim>
					<dim>26</dim>
					<dim>3</dim>
					<dim>10</dim>
				</port>
				<port id="1" precision="I64">
					<dim>3</dim>
				</port>
			</input>
			<output>
				<port id="2" names="StatefulPartitionedCall/functional_1/tf_op_layer_Reshape_1/Reshape_1:0" precision="FP32">
					<dim>1</dim>
					<dim>2028</dim>
					<dim>10</dim>
				</port>
			</output>
		</layer>
		<layer id="310" name="StatefulPartitionedCall/functional_1/tf_op_layer_Sigmoid_4/Sigmoid_4" type="Sigmoid" version="opset1">
			<input>
				<port id="0" precision="FP32">
					<dim>1</dim>
					<dim>1</dim>
					<dim>13</dim>
					<dim>13</dim>
					<dim>3</dim>
				</port>
			</input>
			<output>
				<port id="1" names="StatefulPartitionedCall/functional_1/tf_op_layer_Sigmoid_4/Sigmoid_4:0" precision="FP32">
					<dim>1</dim>
					<dim>1</dim>
					<dim>13</dim>
					<dim>13</dim>
					<dim>3</dim>
				</port>
			</output>
		</layer>
		<layer id="311" name="StatefulPartitionedCall/functional_1/tf_op_layer_Sigmoid_5/Sigmoid_5" type="Sigmoid" version="opset1">
			<input>
				<port id="0" precision="FP32">
					<dim>1</dim>
					<dim>10</dim>
					<dim>13</dim>
					<dim>13</dim>
					<dim>3</dim>
				</port>
			</input>
			<output>
				<port id="1" names="StatefulPartitionedCall/functional_1/tf_op_layer_Sigmoid_5/Sigmoid_5:0" precision="FP32">
					<dim>1</dim>
					<dim>10</dim>
					<dim>13</dim>
					<dim>13</dim>
					<dim>3</dim>
				</port>
			</output>
		</layer>
		<layer id="312" name="StatefulPartitionedCall/functional_1/tf_op_layer_Mul_7/Mul_7" type="Multiply" version="opset1">
			<data auto_broadcast="numpy"/>
			<input>
				<port id="0" precision="FP32">
					<dim>1</dim>
					<dim>1</dim>
					<dim>13</dim>
					<dim>13</dim>
					<dim>3</dim>
				</port>
				<port id="1" precision="FP32">
					<dim>1</dim>
					<dim>10</dim>
					<dim>13</dim>
					<dim>13</dim>
					<dim>3</dim>
				</port>
			</input>
			<output>
				<port id="2" precision="FP32">
					<dim>1</dim>
					<dim>10</dim>
					<dim>13</dim>
					<dim>13</dim>
					<dim>3</dim>
				</port>
			</output>
		</layer>
		<layer id="313" name="StatefulPartitionedCall/functional_1/tf_op_layer_Mul_7/Mul_7/Transpose/value1066717746" type="Const" version="opset1">
			<data element_type="i64" offset="18759936" shape="5" size="40"/>
			<output>
				<port id="0" precision="I64">
					<dim>5</dim>
				</port>
			</output>
		</layer>
…
				<port id="0" precision="FP32">
					<dim>1</dim>
					<dim>2535</dim>
					<dim>10</dim>
				</port>
			</input>
			<output>
				<port id="1" names="StatefulPartitionedCall/functional_1/tf_op_layer_Shape_7/Shape_7:0" precision="I32">
					<dim>3</dim>
				</port>
			</output>
		</layer>
		<layer id="393" name="StatefulPartitionedCall/functional_1/tf_op_layer_strided_slice_7/strided_slice_7/begin" type="Const" version="opset1">
			<data element_type="i64" offset="23574348" shape="1" size="8"/>
			<output>
				<port id="0" names="StatefulPartitionedCall/functional_1/tf_op_layer_strided_slice_7/strided_slice_7/begin:0" precision="I64">
					<dim>1</dim>
				</port>
			</output>
		</layer>
		<layer id="394" name="StatefulPartitionedCall/functional_1/tf_op_layer_strided_slice_7/strided_slice_7/end" type="Const" version="opset1">
			<data element_type="i64" offset="15168088" shape="1" size="8"/>
			<output>
				<port id="0" names="StatefulPartitionedCall/functional_1/tf_op_layer_strided_slice_7/strided_slice_7/end:0" precision="I64">
					<dim>1</dim>
				</port>
			</output>
		</layer>
		<layer id="395" name="StatefulPartitionedCall/functional_1/tf_op_layer_strided_slice_7/strided_slice_7/strides" type="Const" version="opset1">
			<data element_type="i64" offset="225352" shape="1" size="8"/>
			<output>
				<port id="0" names="StatefulPartitionedCall/functional_1/tf_op_layer_strided_slice_7/strided_slice_7/strides:0" precision="I64">
					<dim>1</dim>
				</port>
			</output>
		</layer>
		<layer id="396" name="StatefulPartitionedCall/functional_1/tf_op_layer_strided_slice_7/strided_slice_7" type="StridedSlice" version="opset1">
			<data begin_mask="0" ellipsis_mask="0" end_mask="1" new_axis_mask="0" shrink_axis_mask="0"/>
			<input>
				<port id="0" precision="I32">
					<dim>3</dim>
				</port>
				<port id="1" precision="I64">
					<dim>1</dim>
				</port>
				<port id="2" precision="I64">
					<dim>1</dim>
				</port>
				<port id="3" precision="I64">
					<dim>1</dim>
				</port>
			</input>
			<output>
				<port id="4" names="StatefulPartitionedCall/functional_1/tf_op_layer_strided_slice_7/strided_slice_7:0" precision="I32">
					<dim>1</dim>
				</port>
			</output>
		</layer>
		<layer id="397" name="StatefulPartitionedCall/functional_1/tf_op_layer_concat_12/concat_12" type="Concat" version="opset1">
			<data axis="0"/>
			<input>
				<port id="0" precision="I32">
					<dim>1</dim>
				</port>
				<port id="1" precision="I32">
					<dim>1</dim>
				</port>
			</input>
			<output>
				<port id="2" precision="I32">
					<dim>2</dim>
				</port>
			</output>
		</layer>
		<layer id="398" name="StatefulPartitionedCall/functional_1/tf_op_layer_Reshape_8/Reshape_8/Cast_1" type="Convert" version="opset1">
			<data destination_type="i64"/>
			<input>
				<port id="0" precision="I32">
					<dim>2</dim>
				</port>
			</input>
			<output>
				<port id="1" names="StatefulPartitionedCall/functional_1/tf_op_layer_concat_12/concat_12:0" precision="I64">
					<dim>2</dim>
				</port>
			</output>
		</layer>
		<layer id="399" name="StatefulPartitionedCall/functional_1/tf_op_layer_Reshape_8/Reshape_8" type="Reshape" version="opset1">
			<data special_zero="false"/>
			<input>
				<port id="0" precision="FP32">
					<dim>1</dim>
					<dim>2535</dim>
					<dim>10</dim>
				</port>
				<port id="1" precision="I64">
					<dim>2</dim>
				</port>
			</input>
			<output>
				<port id="2" names="StatefulPartitionedCall/functional_1/tf_op_layer_Reshape_8/Reshape_8:0" precision="FP32">
					<dim>2535</dim>
					<dim>10</dim>
				</port>
			</output>
		</layer>
		<layer id="400" name="StatefulPartitionedCall/functional_1/tf_op_layer_Reshape_9/Reshape_9/shape" type="Const" version="opset1">
			<data element_type="i64" offset="23574360" shape="1" size="8"/>
			<output>
				<port id="0" names="StatefulPartitionedCall/functional_1/tf_op_layer_Reshape_9/Reshape_9/shape:0" precision="I64">
					<dim>1</dim>
				</port>
			</output>
		</layer>
		<layer id="401" name="StatefulPartitionedCall/functional_1/tf_op_layer_Reshape_9/Reshape_9" type="Reshape" version="opset1">
			<data special_zero="false"/>
			<input>
				<port id="0" precision="BOOL">
					<dim>1</dim>
					<dim>2535</dim>
				</port>
				<port id="1" precision="I64">
					<dim>1</dim>
				</port>
			</input>
			<output>
				<port id="2" names="StatefulPartitionedCall/functional_1/tf_op_layer_Reshape_9/Reshape_9:0" precision="BOOL">
					<dim>2535</dim>
				</port>
			</output>
		</layer>
		<layer id="402" name="StatefulPartitionedCall/functional_1/tf_op_layer_Where_1/Where_1/NonZero_" type="NonZero" version="opset3">
			<data output_type="i64"/>
			<input>
				<port id="0" precision="BOOL">
					<dim>2535</dim>
				</port>
			</input>
			<output>
				<port id="1" precision="I64">
					<dim>1</dim>
					<dim>2535</dim>
				</port>
			</output>
		</layer>
		<layer id="403" name="Constant_1822" type="Const" version="opset1">
			<data element_type="i64" offset="15168088" shape="1" size="8"/>
			<output>
				<port id="0" precision="I64">
					<dim>1</dim>
				</port>
			</output>
		</layer>
		<layer id="404" name="Squeeze_1823" type="Squeeze" version="opset1">
			<input>
				<port id="0" precision="I64">
					<dim>1</dim>
					<dim>2535</dim>
				</port>
				<port id="1" precision="I64">
					<dim>1</dim>
				</port>
			</input>
			<output>
				<port id="2" precision="I64">
					<dim>2535</dim>
				</port>
			</output>
		</layer>
		<layer id="405" name="Constant_1824" type="Const" version="opset1">
			<data element_type="i64" offset="15168088" shape="1" size="8"/>
			<output>
				<port id="0" precision="I64">
					<dim>1</dim>
				</port>
			</output>
		</layer>
		<layer id="406" name="StatefulPartitionedCall/functional_1/tf_op_layer_Squeeze_1/Squeeze_1" type="Transpose" version="opset1">
			<input>
				<port id="0" precision="I64">
					<dim>2535</dim>
				</port>
				<port id="1" precision="I64">
					<dim>1</dim>
				</port>
			</input>
			<output>
				<port id="2" precision="I64">
					<dim>2535</dim>
				</port>
			</output>
		</layer>
		<layer id="407" name="StatefulPartitionedCall/functional_1/tf_op_layer_GatherV2_1/GatherV2_1/Cast_1" type="Convert" version="opset1">
			<data destination_type="i32"/>
			<input>
				<port id="0" precision="I64">
					<dim>2535</dim>
				</port>
			</input>
			<output>
				<port id="1" names="StatefulPartitionedCall/functional_1/tf_op_layer_Squeeze_1/Squeeze_1:0" precision="I32">
					<dim>2535</dim>
				</port>
			</output>
		</layer>
		<layer id="408" name="StatefulPartitionedCall/functional_1/tf_op_layer_GatherV2_1/GatherV2_1/axis" type="Const" version="opset1">
			<data element_type="i64" offset="15168088" shape="" size="8"/>
			<output>
				<port id="0" names="StatefulPartitionedCall/functional_1/tf_op_layer_GatherV2_1/GatherV2_1/axis:0" precision="I64"/>
			</output>
		</layer>
		<layer id="409" name="StatefulPartitionedCall/functional_1/tf_op_layer_GatherV2_1/GatherV2_1" type="Gather" version="opset7">
			<data batch_dims="0"/>
			<input>
				<port id="0" precision="FP32">
					<dim>2535</dim>
					<dim>10</dim>
				</port>
				<port id="1" precision="I32">
					<dim>2535</dim>
				</port>
				<port id="2" precision="I64"/>
			</input>
			<output>
				<port id="3" names="StatefulPartitionedCall/functional_1/tf_op_layer_GatherV2_1/GatherV2_1:0" precision="FP32">
					<dim>2535</dim>
					<dim>10</dim>
				</port>
			</output>
		</layer>
		<layer id="410" name="StatefulPartitionedCall/functional_1/tf_op_layer_Shape_10/Shape_10" type="ShapeOf" version="opset3">
			<data output_type="i32"/>
			<input>
				<port id="0" precision="FP32">
					<dim>1</dim>
					<dim>2535</dim>
					<dim>10</dim>
				</port>
			</input>
			<output>
				<port id="1" names="StatefulPartitionedCall/functional_1/tf_op_layer_Shape_10/Shape_10:0" precision="I32">
					<dim>3</dim>
				</port>
			</output>
		</layer>
		<layer id="411" name="StatefulPartitionedCall/functional_1/tf_op_layer_strided_slice_10/strided_slice_10/begin" type="Const" version="opset1">
			<data element_type="i64" offset="15168088" shape="1" size="8"/>
			<output>
				<port id="0" names="StatefulPartitionedCall/functional_1/tf_op_layer_strided_slice_10/strided_slice_10/begin:0" precision="I64">
					<dim>1</dim>
				</port>
			</output>
		</layer>
		<layer id="412" name="StatefulPartitionedCall/functional_1/tf_op_layer_strided_slice_10/strided_slice_10/end" type="Const" version="opset1">
			<data element_type="i64" offset="225352" shape="1" size="8"/>
			<output>
				<port id="0" names="StatefulPartitionedCall/functional_1/tf_op_layer_strided_slice_10/strided_slice_10/end:0" precision="I64">
					<dim>1</dim>
				</port>
			</output>
		</layer>
		<layer id="413" name="StatefulPartitionedCall/functional_1/tf_op_layer_strided_slice_10/strided_slice_10/strides" type="Const" version="opset1">
			<data element_type="i64" offset="225352" shape="1" size="8"/>
			<output>
				<port id="0" names="StatefulPartitionedCall/functional_1/tf_op_layer_strided_slice_10/strided_slice_10/strides:0" precision="I64">
					<dim>1</dim>
				</port>
			</output>
		</layer>
		<layer id="414" name="StatefulPartitionedCall/functional_1/tf_op_layer_strided_slice_10/strided_slice_10" type="StridedSlice" version="opset1">
			<data begin_mask="0" ellipsis_mask="0" end_mask="0" new_axis_mask="0" shrink_axis_mask="1"/>
			<input>
				<port id="0" precision="I32">
					<dim>3</dim>
				</port>
				<port id="1" precision="I64">
					<dim>1</dim>
				</port>
				<port id="2" precision="I64">
					<dim>1</dim>
				</port>
				<port id="3" precision="I64">
					<dim>1</dim>
				</port>
			</input>
			<output>
				<port id="4" names="StatefulPartitionedCall/functional_1/tf_op_layer_strided_slice_10/strided_slice_10:0" precision="I32"/>
			</output>
		</layer>
		<layer id="415" name="StatefulPartitionedCall/functional_1/tf_op_layer_Reshape_11/shape/Reshape_11/shape/Unsqueeze_input_port_1/value" type="Const" version="opset1">
			<data element_type="i64" offset="15168088" shape="1" size="8"/>
			<output>
				<port id="0" precision="I64">
					<dim>1</dim>
				</port>
			</output>
		</layer>
		<layer id="416" name="StatefulPartitionedCall/functional_1/tf_op_layer_Reshape_11/shape/Reshape_11/shape/Unsqueeze" type="Unsqueeze" version="opset1">
			<input>
				<port id="0" precision="I32"/>
				<port id="1" precision="I64">
					<dim>1</dim>
				</port>
			</input>
			<output>
				<port id="2" precision="I32">
					<dim>1</dim>
				</port>
			</output>
		</layer>
		<layer id="417" name="StatefulPartitionedCall/functional_1/tf_op_layer_Reshape_11/shape/Reshape_11/shape/Unsqueeze705" type="Const" version="opset1">
			<data element_type="i32" offset="18759976" shape="1" size="4"/>
			<output>
				<port id="0" precision="I32">
					<dim>1</dim>
				</port>
			</output>
		</layer>
		<layer id="418" name="StatefulPartitionedCall/functional_1/tf_op_layer_Shape_11/Shape_11" type="ShapeOf" version="opset3">
			<data output_type="i32"/>
			<input>
				<port id="0" precision="FP32">
					<dim>2535</dim>
					<dim>10</dim>
				</port>
			</input>
			<output>
				<port id="1" names="StatefulPartitionedCall/functional_1/tf_op_layer_Shape_11/Shape_11:0" precision="I32">
					<dim>2</dim>
				</port>
			</output>
		</layer>
		<layer id="419" name="StatefulPartitionedCall/functional_1/tf_op_layer_strided_slice_11/strided_slice_11/begin" type="Const" version="opset1">
			<data element_type="i64" offset="23574360" shape="1" size="8"/>
			<output>
				<port id="0" names="StatefulPartitionedCall/functional_1/tf_op_layer_strided_slice_11/strided_slice_11/begin:0" precision="I64">
					<dim>1</dim>
				</port>
			</output>
		</layer>
		<layer id="420" name="StatefulPartitionedCall/functional_1/tf_op_layer_strided_slice_11/strided_slice_11/end" type="Const" version="opset1">
			<data element_type="i64" offset="15168088" shape="1" size="8"/>
			<output>
				<port id="0" names="StatefulPartitionedCall/functional_1/tf_op_layer_strided_slice_11/strided_slice_11/end:0" precision="I64">
					<dim>1</dim>
				</port>
			</output>
		</layer>
		<layer id="421" name="StatefulPartitionedCall/functional_1/tf_op_layer_strided_slice_11/strided_slice_11/strides" type="Const" version="opset1">
			<data element_type="i64" offset="225352" shape="1" size="8"/>
			<output>
				<port id="0" names="StatefulPartitionedCall/functional_1/tf_op_layer_strided_slice_11/strided_slice_11/strides:0" precision="I64">
					<dim>1</dim>
				</port>
			</output>
		</layer>
		<layer id="422" name="StatefulPartitionedCall/functional_1/tf_op_layer_strided_slice_11/strided_slice_11" type="StridedSlice" version="opset1">
			<data begin_mask="0" ellipsis_mask="0" end_mask="0" new_axis_mask="0" shrink_axis_mask="1"/>
			<input>
				<port id="0" precision="I32">
					<dim>2</dim>
				</port>
				<port id="1" precision="I64">
					<dim>1</dim>
				</port>
				<port id="2" precision="I64">
					<dim>1</dim>
				</port>
				<port id="3" precision="I64">
					<dim>1</dim>
				</port>
			</input>
			<output>
				<port id="4" names="StatefulPartitionedCall/functional_1/tf_op_layer_strided_slice_11/strided_slice_11:0" precision="I32"/>
			</output>
		</layer>
		<layer id="423" name="StatefulPartitionedCall/functional_1/tf_op_layer_Reshape_11/shape/Reshape_11/shape/Unsqueeze707_input_port_1/value" type="Const" version="opset1">
			<data element_type="i64" offset="15168088" shape="1" size="8"/>
			<output>
				<port id="0" precision="I64">
					<dim>1</dim>
				</port>
			</output>
		</layer>
		<layer id="424" name="StatefulPartitionedCall/functional_1/tf_op_layer_Reshape_11/shape/Reshape_11/shape/Unsqueeze707" type="Unsqueeze" version="opset1">
			<input>
				<port id="0" precision="I32"/>
				<port id="1" precision="I64">
					<dim>1</dim>
				</port>
			</input>
			<output>
				<port id="2" precision="I32">
					<dim>1</dim>
				</port>
			</output>
		</layer>
		<layer id="425" name="StatefulPartitionedCall/functional_1/tf_op_layer_Reshape_11/shape/Reshape_11/shape" type="Concat" version="opset1">
			<data axis="0"/>
			<input>
				<port id="0" precision="I32">
					<dim>1</dim>
				</port>
				<port id="1" precision="I32">
					<dim>1</dim>
				</port>
				<port id="2" precision="I32">
					<dim>1</dim>
				</port>
			</input>
			<output>
				<port id="3" precision="I32">
					<dim>3</dim>
				</port>
			</output>
		</layer>
		<layer id="426" name="StatefulPartitionedCall/functional_1/tf_op_layer_Reshape_11/Reshape_11/Cast_1" type="Convert" version="opset1">
			<data destination_type="i64"/>
			<input>
				<port id="0" precision="I32">
					<dim>3</dim>
				</port>
			</input>
			<output>
				<port id="1" names="StatefulPartitionedCall/functional_1/tf_op_layer_Reshape_11/shape/Reshape_11/shape:0" precision="I64">
					<dim>3</dim>
				</port>
			</output>
		</layer>
		<layer id="427" name="StatefulPartitionedCall/functional_1/tf_op_layer_Reshape_11/Reshape_11" type="Reshape" version="opset1">
			<data special_zero="false"/>
			<input>
				<port id="0" precision="FP32">
					<dim>2535</dim>
					<dim>10</dim>
				</port>
				<port id="1" precision="I64">
					<dim>3</dim>
				</port>
			</input>
			<output>
				<port id="2" names="StatefulPartitionedCall/functional_1/tf_op_layer_Reshape_11/Reshape_11:0" precision="FP32">
					<dim>1</dim>
					<dim>2535</dim>
					<dim>10</dim>
				</port>
			</output>
		</layer>
		<layer id="428" name="StatefulPartitionedCall/functional_1/tf_op_layer_concat_14/concat_14" type="Concat" version="opset1">
			<data axis="2"/>
			<input>
				<port id="0" precision="FP32">
					<dim>1</dim>
					<dim>2535</dim>
					<dim>4</dim>
				</port>
				<port id="1" precision="FP32">
					<dim>1</dim>
					<dim>2535</dim>
					<dim>10</dim>
				</port>
			</input>
			<output>
				<port id="2" names="Func/StatefulPartitionedCall/output/_100:0,Identity:0,StatefulPartitionedCall/Identity:0,StatefulPartitionedCall/functional_1/tf_op_layer_concat_14/concat_14:0" precision="FP32">
					<dim>1</dim>
					<dim>2535</dim>
					<dim>14</dim>
				</port>
			</output>
		</layer>
		<layer id="429" name="Func/StatefulPartitionedCall/output/_100:0" type="Result" version="opset1">
			<input>
				<port id="0" precision="FP32">
					<dim>1</dim>
					<dim>2535</dim>
					<dim>14</dim>
				</port>
			</input>
		</layer>
	</layers>
	<edges>
		<edge from-layer="0" from-port="0" to-layer="4" to-port="0"/>
		<edge from-layer="1" from-port="0" to-layer="4" to-port="1"/>
		<edge from-layer="2" from-port="0" to-layer="4" to-port="2"/>
		<edge from-layer="3" from-port="0" to-layer="4" to-port="3"/>
		<edge from-layer="4" from-port="4" to-layer="6" to-port="0"/>
		<edge from-layer="5" from-port="0" to-layer="6" to-port="1"/>
		<edge from-layer="6" from-port="2" to-layer="8" to-port="0"/>
		<edge from-layer="7" from-port="0" to-layer="8" to-port="1"/>
		<edge from-layer="8" from-port="2" to-layer="10" to-port="0"/>
		<edge from-layer="9" from-port="0" to-layer="10" to-port="1"/>
		<edge from-layer="10" from-port="2" to-layer="14" to-port="0"/>
		<edge from-layer="11" from-port="0" to-layer="14" to-port="1"/>
		<edge from-layer="12" from-port="0" to-layer="14" to-port="2"/>
		<edge from-layer="13" from-port="0" to-layer="14" to-port="3"/>
		<edge from-layer="14" from-port="4" to-layer="16" to-port="0"/>
		<edge from-layer="15" from-port="0" to-layer="16" to-port="1"/>
		<edge from-layer="16" from-port="2" to-layer="18" to-port="0"/>
		<edge from-layer="17" from-port="0" to-layer="18" to-port="1"/>
		<edge from-layer="18" from-port="2" to-layer="20" to-port="0"/>
		<edge from-layer="19" from-port="0" to-layer="20" to-port="1"/>
		<edge from-layer="20" from-port="2" to-layer="22" to-port="0"/>
		<edge from-layer="21" from-port="0" to-layer="22" to-port="1"/>
		<edge from-layer="22" from-port="2" to-layer="24" to-port="0"/>
		<edge from-layer="23" from-port="0" to-layer="24" to-port="1"/>
		<edge from-layer="24" from-port="2" to-layer="26" to-port="0"/>
		<edge from-layer="25" from-port="0" to-layer="26" to-port="1"/>
		<edge from-layer="26" from-port="2" to-layer="28" to-port="0"/>
		<edge from-layer="26" from-port="2" to-layer="48" to-port="0"/>
		<edge from-layer="27" from-port="0" to-layer="28" to-port="1"/>
		<edge from-layer="28" from-port="3" to-layer="30" to-port="0"/>
		<edge from-layer="29" from-port="0" to-layer="30" to-port="1"/>
		<edge from-layer="30" from-port="2" to-layer="32" to-port="0"/>
		<edge from-layer="31" from-port="0" to-layer="32" to-port="1"/>
		<edge from-layer="32" from-port="2" to-layer="34" to-port="0"/>
		<edge from-layer="33" from-port="0" to-layer="34" to-port="1"/>
		<edge from-layer="34" from-port="2" to-layer="36" to-port="0"/>
		<edge from-layer="34" from-port="2" to-layer="41" to-port="1"/>
		<edge from-layer="35" from-port="0" to-layer="36" to-port="1"/>
		<edge from-layer="36" from-port="2" to-layer="38" to-port="0"/>
		<edge from-layer="37" from-port="0" to-layer="38" to-port="1"/>
		<edge from-layer="38" from-port="2" to-layer="40" to-port="0"/>
		<edge from-layer="39" from-port="0" to-layer="40" to-port="1"/>
		<edge from-layer="40" from-port="2" to-layer="41" to-port="0"/>
		<edge from-layer="41" from-port="2" to-layer="43" to-port="0"/>
		<edge from-layer="42" from-port="0" to-layer="43" to-port="1"/>
		<edge from-layer="43" from-port="2" to-layer="45" to-port="0"/>
		<edge from-layer="44" from-port="0" to-layer="45" to-port="1"/>
		<edge from-layer="45" from-port="2" to-layer="47" to-port="0"/>
		<edge from-layer="46" from-port="0" to-layer="47" to-port="1"/>
		<edge from-layer="47" from-port="2" to-layer="48" to-port="1"/>
		<edge from-layer="48" from-port="2" to-layer="49" to-port="0"/>
		<edge from-layer="49" from-port="1" to-layer="51" to-port="0"/>
		<edge from-layer="50" from-port="0" to-layer="51" to-port="1"/>
		<edge from-layer="51" from-port="2" to-layer="53" to-port="0"/>
		<edge from-layer="52" from-port="0" to-layer="53" to-port="1"/>
		<edge from-layer="53" from-port="2" to-layer="55" to-port="0"/>
		<edge from-layer="54" from-port="0" to-layer="55" to-port="1"/>
		<edge from-layer="55" from-port="2" to-layer="57" to-port="0"/>
		<edge from-layer="55" from-port="2" to-layer="77" to-port="0"/>
		<edge from-layer="56" from-port="0" to-layer="57" to-port="1"/>
		<edge from-layer="57" from-port="3" to-layer="59" to-port="0"/>
		<edge from-layer="58" from-port="0" to-layer="59" to-port="1"/>
		<edge from-layer="59" from-port="2" to-layer="61" to-port="0"/>
		<edge from-layer="60" from-port="0" to-layer="61" to-port="1"/>
		<edge from-layer="61" from-port="2" to-layer="63" to-port="0"/>
		<edge from-layer="62" from-port="0" to-layer="63" to-port="1"/>
		<edge from-layer="63" from-port="2" to-layer="65" to-port="0"/>
		<edge from-layer="63" from-port="2" to-layer="70" to-port="1"/>
		<edge from-layer="64" from-port="0" to-layer="65" to-port="1"/>
		<edge from-layer="65" from-port="2" to-layer="67" to-port="0"/>
		<edge from-layer="66" from-port="0" to-layer="67" to-port="1"/>
		<edge from-layer="67" from-port="2" to-layer="69" to-port="0"/>
		<edge from-layer="68" from-port="0" to-layer="69" to-port="1"/>
		<edge from-layer="69" from-port="2" to-layer="70" to-port="0"/>
		<edge from-layer="70" from-port="2" to-layer="72" to-port="0"/>
		<edge from-layer="71" from-port="0" to-layer="72" to-port="1"/>
		<edge from-layer="72" from-port="2" to-layer="74" to-port="0"/>
		<edge from-layer="73" from-port="0" to-layer="74" to-port="1"/>
		<edge from-layer="74" from-port="2" to-layer="76" to-port="0"/>
		<edge from-layer="75" from-port="0" to-layer="76" to-port="1"/>
		<edge from-layer="76" from-port="2" to-layer="77" to-port="1"/>
		<edge from-layer="77" from-port="2" to-layer="78" to-port="0"/>
		<edge from-layer="78" from-port="1" to-layer="80" to-port="0"/>
		<edge from-layer="79" from-port="0" to-layer="80" to-port="1"/>
		<edge from-layer="80" from-port="2" to-layer="82" to-port="0"/>
		<edge from-layer="81" from-port="0" to-layer="82" to-port="1"/>
		<edge from-layer="82" from-port="2" to-layer="84" to-port="0"/>
		<edge from-layer="83" from-port="0" to-layer="84" to-port="1"/>
		<edge from-layer="84" from-port="2" to-layer="86" to-port="0"/>
		<edge from-layer="84" from-port="2" to-layer="106" to-port="0"/>
		<edge from-layer="85" from-port="0" to-layer="86" to-port="1"/>
		<edge from-layer="86" from-port="3" to-layer="88" to-port="0"/>
		<edge from-layer="87" from-port="0" to-layer="88" to-port="1"/>
		<edge from-layer="88" from-port="2" to-layer="90" to-port="0"/>
		<edge from-layer="89" from-port="0" to-layer="90" to-port="1"/>
		<edge from-layer="90" from-port="2" to-layer="92" to-port="0"/>
		<edge from-layer="91" from-port="0" to-layer="92" to-port="1"/>
		<edge from-layer="92" from-port="2" to-layer="94" to-port="0"/>
		<edge from-layer="92" from-port="2" to-layer="99" to-port="1"/>
		<edge from-layer="93" from-port="0" to-layer="94" to-port="1"/>
		<edge from-layer="94" from-port="2" to-layer="96" to-port="0"/>
		<edge from-layer="95" from-port="0" to-layer="96" to-port="1"/>
		<edge from-layer="96" from-port="2" to-layer="98" to-port="0"/>
		<edge from-layer="97" from-port="0" to-layer="98" to-port="1"/>
		<edge from-layer="98" from-port="2" to-layer="99" to-port="0"/>
		<edge from-layer="99" from-port="2" to-layer="101" to-port="0"/>
		<edge from-layer="100" from-port="0" to-layer="101" to-port="1"/>
		<edge from-layer="101" from-port="2" to-layer="103" to-port="0"/>
		<edge from-layer="102" from-port="0" to-layer="103" to-port="1"/>
		<edge from-layer="103" from-port="2" to-layer="105" to-port="0"/>
		<edge from-layer="104" from-port="0" to-layer="105" to-port="1"/>
		<edge from-layer="105" from-port="2" to-layer="106" to-port="1"/>
		<edge from-layer="105" from-port="2" to-layer="143" to-port="1"/>
		<edge from-layer="105" from-port="2" to-layer="126" to-port="0"/>
		<edge from-layer="106" from-port="2" to-layer="107" to-port="0"/>
		<edge from-layer="107" from-port="1" to-layer="109" to-port="0"/>
		<edge from-layer="108" from-port="0" to-layer="109" to-port="1"/>
		<edge from-layer="109" from-port="2" to-layer="111" to-port="0"/>
		<edge from-layer="110" from-port="0" to-layer="111" to-port="1"/>
		<edge from-layer="111" from-port="2" to-layer="113" to-port="0"/>
		<edge from-layer="112" from-port="0" to-layer="113" to-port="1"/>
		<edge from-layer="113" from-port="2" to-layer="115" to-port="0"/>
		<edge from-layer="114" from-port="0" to-layer="115" to-port="1"/>
		<edge from-layer="115" from-port="2" to-layer="117" to-port="0"/>
		<edge from-layer="116" from-port="0" to-layer="117" to-port="1"/>
		<edge from-layer="117" from-port="2" to-layer="119" to-port="0"/>
		<edge from-layer="118" from-port="0" to-layer="119" to-port="1"/>
		<edge from-layer="119" from-port="2" to-layer="121" to-port="0"/>
		<edge from-layer="119" from-port="2" to-layer="213" to-port="0"/>
		<edge from-layer="120" from-port="0" to-layer="121" to-port="1"/>
		<edge from-layer="121" from-port="2" to-layer="123" to-port="0"/>
		<edge from-layer="122" from-port="0" to-layer="123" to-port="1"/>
		<edge from-layer="123" from-port="2" to-layer="125" to-port="0"/>
		<edge from-layer="124" from-port="0" to-layer="125" to-port="1"/>
		<edge from-layer="125" from-port="2" to-layer="131" to-port="0"/>
		<edge from-layer="125" from-port="2" to-layer="142" to-port="0"/>
		<edge from-layer="126" from-port="1" to-layer="129" to-port="0"/>
		<edge from-layer="127" from-port="0" to-layer="129" to-port="1"/>
		<edge from-layer="128" from-port="0" to-layer="129" to-port="2"/>
		<edge from-layer="129" from-port="3" to-layer="142" to-port="1"/>
		<edge from-layer="130" from-port="0" to-layer="140" to-port="0"/>
		<edge from-layer="131" from-port="1" to-layer="134" to-port="0"/>
		<edge from-layer="132" from-port="0" to-layer="134" to-port="1"/>
		<edge from-layer="133" from-port="0" to-layer="134" to-port="2"/>
		<edge from-layer="134" from-port="3" to-layer="138" to-port="0"/>
		<edge from-layer="135" from-port="0" to-layer="138" to-port="1"/>
		<edge from-layer="136" from-port="0" to-layer="138" to-port="2"/>
		<edge from-layer="137" from-port="0" to-layer="138" to-port="3"/>
		<edge from-layer="138" from-port="4" to-layer="139" to-port="0"/>
		<edge from-layer="139" from-port="1" to-layer="140" to-port="1"/>
		<edge from-layer="140" from-port="2" to-layer="142" to-port="2"/>
		<edge from-layer="141" from-port="0" to-layer="142" to-port="3"/>
		<edge from-layer="142" from-port="4" to-layer="143" to-port="0"/>
		<edge from-layer="143" from-port="2" to-layer="145" to-port="0"/>
		<edge from-layer="144" from-port="0" to-layer="145" to-port="1"/>
		<edge from-layer="145" from-port="2" to-layer="147" to-port="0"/>
		<edge from-layer="146" from-port="0" to-layer="147" to-port="1"/>
		<edge from-layer="147" from-port="2" to-layer="149" to-port="0"/>
		<edge from-layer="148" from-port="0" to-layer="149" to-port="1"/>
		<edge from-layer="149" from-port="2" to-layer="151" to-port="0"/>
		<edge from-layer="150" from-port="0" to-layer="151" to-port="1"/>
		<edge from-layer="151" from-port="2" to-layer="153" to-port="0"/>
		<edge from-layer="152" from-port="0" to-layer="153" to-port="1"/>
		<edge from-layer="153" from-port="2" to-layer="156" to-port="0"/>
		<edge from-layer="153" from-port="2" to-layer="155" to-port="0"/>
		<edge from-layer="154" from-port="0" to-layer="155" to-port="1"/>
		<edge from-layer="155" from-port="2" to-layer="172" to-port="0"/>
		<edge from-layer="156" from-port="1" to-layer="159" to-port="0"/>
		<edge from-layer="157" from-port="0" to-layer="159" to-port="1"/>
		<edge from-layer="158" from-port="0" to-layer="159" to-port="2"/>
		<edge from-layer="159" from-port="3" to-layer="163" to-port="0"/>
		<edge from-layer="160" from-port="0" to-layer="163" to-port="1"/>
		<edge from-layer="161" from-port="0" to-layer="163" to-port="2"/>
		<edge from-layer="162" from-port="0" to-layer="163" to-port="3"/>
		<edge from-layer="163" from-port="4" to-layer="165" to-port="0"/>
		<edge from-layer="163" from-port="4" to-layer="185" to-port="0"/>
		<edge from-layer="163" from-port="4" to-layer="206" to-port="0"/>
		<edge from-layer="163" from-port="4" to-layer="304" to-port="0"/>
		<edge from-layer="164" from-port="0" to-layer="165" to-port="1"/>
		<edge from-layer="165" from-port="2" to-layer="170" to-port="0"/>
		<edge from-layer="166" from-port="0" to-layer="170" to-port="1"/>
		<edge from-layer="167" from-port="0" to-layer="170" to-port="2"/>
		<edge from-layer="168" from-port="0" to-layer="170" to-port="3"/>
		<edge from-layer="169" from-port="0" to-layer="170" to-port="4"/>
		<edge from-layer="170" from-port="5" to-layer="171" to-port="0"/>
		<edge from-layer="171" from-port="1" to-layer="172" to-port="1"/>
		<edge from-layer="172" from-port="2" to-layer="174" to-port="0"/>
		<edge from-layer="173" from-port="0" to-layer="174" to-port="1"/>
		<edge from-layer="174" from-port="2" to-layer="177" to-port="0"/>
		<edge from-layer="175" from-port="0" to-layer="177" to-port="1"/>
		<edge from-layer="176" from-port="0" to-layer="177" to-port="2"/>
		<edge from-layer="177" from-port="4" to-layer="199" to-port="0"/>
		<edge from-layer="177" from-port="6" to-layer="299" to-port="0"/>
		<edge from-layer="177" from-port="3" to-layer="178" to-port="0"/>
		<edge from-layer="177" from-port="5" to-layer="298" to-port="0"/>
		<edge from-layer="178" from-port="1" to-layer="180" to-port="0"/>
		<edge from-layer="179" from-port="0" to-layer="180" to-port="1"/>
		<edge from-layer="180" from-port="2" to-layer="182" to-port="0"/>
		<edge from-layer="181" from-port="0" to-layer="182" to-port="1"/>
		<edge from-layer="182" from-port="2" to-layer="196" to-port="0"/>
		<edge from-layer="183" from-port="0" to-layer="192" to-port="0"/>
		<edge from-layer="184" from-port="0" to-layer="185" to-port="1"/>
		<edge from-layer="185" from-port="2" to-layer="190" to-port="0"/>
		<edge from-layer="186" from-port="0" to-layer="190" to-port="1"/>
		<edge from-layer="187" from-port="0" to-layer="190" to-port="2"/>
		<edge from-layer="188" from-port="0" to-layer="190" to-port="3"/>
		<edge from-layer="189" from-port="0" to-layer="190" to-port="4"/>
		<edge from-layer="190" from-port="5" to-layer="191" to-port="0"/>
		<edge from-layer="191" from-port="1" to-layer="192" to-port="1"/>
		<edge from-layer="192" from-port="2" to-layer="193" to-port="0"/>
		<edge from-layer="193" from-port="1" to-layer="195" to-port="0"/>
		<edge from-layer="194" from-port="0" to-layer="195" to-port="1"/>
		<edge from-layer="195" from-port="2" to-layer="196" to-port="1"/>
		<edge from-layer="196" from-port="2" to-layer="198" to-port="0"/>
		<edge from-layer="197" from-port="0" to-layer="198" to-port="1"/>
		<edge from-layer="198" from-port="2" to-layer="202" to-port="0"/>
		<edge from-layer="199" from-port="1" to-layer="201" to-port="0"/>
		<edge from-layer="200" from-port="0" to-layer="201" to-port="1"/>
		<edge from-layer="201" from-port="2" to-layer="202" to-port="1"/>
		<edge from-layer="202" from-port="2" to-layer="204" to-port="0"/>
		<edge from-layer="203" from-port="0" to-layer="204" to-port="1"/>
		<edge from-layer="204" from-port="2" to-layer="211" to-port="0"/>
		<edge from-layer="205" from-port="0" to-layer="206" to-port="1"/>
		<edge from-layer="206" from-port="2" to-layer="209" to-port="0"/>
		<edge from-layer="207" from-port="0" to-layer="209" to-port="1"/>
		<edge from-layer="208" from-port="0" to-layer="209" to-port="2"/>
		<edge from-layer="209" from-port="3" to-layer="210" to-port="0"/>
		<edge from-layer="210" from-port="1" to-layer="211" to-port="1"/>
		<edge from-layer="211" from-port="2" to-layer="280" to-port="0"/>
		<edge from-layer="212" from-port="0" to-layer="213" to-port="1"/>
		<edge from-layer="213" from-port="2" to-layer="215" to-port="0"/>
		<edge from-layer="214" from-port="0" to-layer="215" to-port="1"/>
		<edge from-layer="215" from-port="2" to-layer="217" to-port="0"/>
		<edge from-layer="216" from-port="0" to-layer="217" to-port="1"/>
		<edge from-layer="217" from-port="2" to-layer="219" to-port="0"/>
		<edge from-layer="218" from-port="0" to-layer="219" to-port="1"/>
		<edge from-layer="219" from-port="2" to-layer="221" to-port="0"/>
		<edge from-layer="220" from-port="0" to-layer="221" to-port="1"/>
		<edge from-layer="221" from-port="2" to-layer="223" to-port="0"/>
		<edge from-layer="221" from-port="2" to-layer="224" to-port="0"/>
		<edge from-layer="222" from-port="0" to-layer="223" to-port="1"/>
		<edge from-layer="223" from-port="2" to-layer="240" to-port="0"/>
		<edge from-layer="224" from-port="1" to-layer="227" to-port="0"/>
		<edge from-layer="225" from-port="0" to-layer="227" to-port="1"/>
		<edge from-layer="226" from-port="0" to-layer="227" to-port="2"/>
		<edge from-layer="227" from-port="3" to-layer="231" to-port="0"/>
		<edge from-layer="228" from-port="0" to-layer="231" to-port="1"/>
		<edge from-layer="229" from-port="0" to-layer="231" to-port="2"/>
		<edge from-layer="230" from-port="0" to-layer="231" to-port="3"/>
		<edge from-layer="231" from-port="4" to-layer="233" to-port="0"/>
		<edge from-layer="231" from-port="4" to-layer="253" to-port="0"/>
		<edge from-layer="231" from-port="4" to-layer="274" to-port="0"/>
		<edge from-layer="231" from-port="4" to-layer="316" to-port="0"/>
		<edge from-layer="232" from-port="0" to-layer="233" to-port="1"/>
		<edge from-layer="233" from-port="2" to-layer="238" to-port="0"/>
		<edge from-layer="234" from-port="0" to-layer="238" to-port="1"/>
		<edge from-layer="235" from-port="0" to-layer="238" to-port="2"/>
		<edge from-layer="236" from-port="0" to-layer="238" to-port="3"/>
		<edge from-layer="237" from-port="0" to-layer="238" to-port="4"/>
		<edge from-layer="238" from-port="5" to-layer="239" to-port="0"/>
		<edge from-layer="239" from-port="1" to-layer="240" to-port="1"/>
		<edge from-layer="240" from-port="2" to-layer="242" to-port="0"/>
		<edge from-layer="241" from-port="0" to-layer="242" to-port="1"/>
		<edge from-layer="242" from-port="2" to-layer="245" to-port="0"/>
		<edge from-layer="243" from-port="0" to-layer="245" to-port="1"/>
		<edge from-layer="244" from-port="0" to-layer="245" to-port="2"/>
		<edge from-layer="245" from-port="3" to-layer="246" to-port="0"/>
		<edge from-layer="245" from-port="4" to-layer="267" to-port="0"/>
		<edge from-layer="245" from-port="5" to-layer="310" to-port="0"/>
		<edge from-layer="245" from-port="6" to-layer="311" to-port="0"/>
		<edge from-layer="246" from-port="1" to-layer="248" to-port="0"/>
		<edge from-layer="247" from-port="0" to-layer="248" to-port="1"/>
		<edge from-layer="248" from-port="2" to-layer="250" to-port="0"/>
		<edge from-layer="249" from-port="0" to-layer="250" to-port="1"/>
		<edge from-layer="250" from-port="2" to-layer="264" to-port="0"/>
		<edge from-layer="251" from-port="0" to-layer="260" to-port="0"/>
		<edge from-layer="252" from-port="0" to-layer="253" to-port="1"/>
		<edge from-layer="253" from-port="2" to-layer="258" to-port="0"/>
		<edge from-layer="254" from-port="0" to-layer="258" to-port="1"/>
		<edge from-layer="255" from-port="0" to-layer="258" to-port="2"/>
		<edge from-layer="256" from-port="0" to-layer="258" to-port="3"/>
		<edge from-layer="257" from-port="0" to-layer="258" to-port="4"/>
		<edge from-layer="258" from-port="5" to-layer="259" to-port="0"/>
		<edge from-layer="259" from-port="1" to-layer="260" to-port="1"/>
		<edge from-layer="260" from-port="2" to-layer="261" to-port="0"/>
		<edge from-layer="261" from-port="1" to-layer="263" to-port="0"/>
		<edge from-layer="262" from-port="0" to-layer="263" to-port="1"/>
		<edge from-layer="263" from-port="2" to-layer="264" to-port="1"/>
		<edge from-layer="264" from-port="2" to-layer="266" to-port="0"/>
		<edge from-layer="265" from-port="0" to-layer="266" to-port="1"/>
		<edge from-layer="266" from-port="2" to-layer="270" to-port="0"/>
		<edge from-layer="267" from-port="1" to-layer="269" to-port="0"/>
		<edge from-layer="268" from-port="0" to-layer="269" to-port="1"/>
		<edge from-layer="269" from-port="2" to-layer="270" to-port="1"/>
		<edge from-layer="270" from-port="2" to-layer="272" to-port="0"/>
		<edge from-layer="271" from-port="0" to-layer="272" to-port="1"/>
		<edge from-layer="272" from-port="2" to-layer="279" to-port="0"/>
		<edge from-layer="273" from-port="0" to-layer="274" to-port="1"/>
		<edge from-layer="274" from-port="2" to-layer="277" to-port="0"/>
		<edge from-layer="275" from-port="0" to-layer="277" to-port="1"/>
		<edge from-layer="276" from-port="0" to-layer="277" to-port="2"/>
		<edge from-layer="277" from-port="3" to-layer="278" to-port="0"/>
		<edge from-layer="278" from-port="1" to-layer="279" to-port="1"/>
		<edge from-layer="279" from-port="2" to-layer="280" to-port="1"/>
		<edge from-layer="280" from-port="2" to-layer="290" to-port="0"/>
		<edge from-layer="280" from-port="2" to-layer="281" to-port="0"/>
		<edge from-layer="280" from-port="2" to-layer="297" to-port="0"/>
		<edge from-layer="281" from-port="1" to-layer="285" to-port="0"/>
		<edge from-layer="282" from-port="0" to-layer="285" to-port="1"/>
		<edge from-layer="283" from-port="0" to-layer="285" to-port="2"/>
		<edge from-layer="284" from-port="0" to-layer="285" to-port="3"/>
		<edge from-layer="285" from-port="4" to-layer="287" to-port="0"/>
		<edge from-layer="286" from-port="0" to-layer="287" to-port="1"/>
		<edge from-layer="287" from-port="2" to-layer="289" to-port="0"/>
		<edge from-layer="288" from-port="0" to-layer="289" to-port="1"/>
		<edge from-layer="289" from-port="2" to-layer="295" to-port="0"/>
		<edge from-layer="290" from-port="1" to-layer="294" to-port="0"/>
		<edge from-layer="291" from-port="0" to-layer="294" to-port="1"/>
		<edge from-layer="292" from-port="0" to-layer="294" to-port="2"/>
		<edge from-layer="293" from-port="0" to-layer="294" to-port="3"/>
		<edge from-layer="294" from-port="4" to-layer="295" to-port="1"/>
		<edge from-layer="295" from-port="2" to-layer="296" to-port="0"/>
		<edge from-layer="296" from-port="1" to-layer="297" to-port="1"/>
		<edge from-layer="297" from-port="2" to-layer="336" to-port="0"/>
		<edge from-layer="298" from-port="1" to-layer="300" to-port="0"/>
		<edge from-layer="299" from-port="1" to-layer="300" to-port="1"/>
		<edge from-layer="300" from-port="2" to-layer="302" to-port="0"/>
		<edge from-layer="301" from-port="0" to-layer="302" to-port="1"/>
		<edge from-layer="302" from-port="2" to-layer="309" to-port="0"/>
		<edge from-layer="303" from-port="0" to-layer="304" to-port="1"/>
		<edge from-layer="304" from-port="2" to-layer="307" to-port="0"/>
		<edge from-layer="305" from-port="0" to-layer="307" to-port="1"/>
		<edge from-layer="306" from-port="0" to-layer="307" to-port="2"/>
		<edge from-layer="307" from-port="3" to-layer="308" to-port="0"/>
		<edge from-layer="308" from-port="1" to-layer="309" to-port="1"/>
		<edge from-layer="309" from-port="2" to-layer="322" to-port="0"/>
		<edge from-layer="310" from-port="1" to-layer="312" to-port="0"/>
		<edge from-layer="311" from-port="1" to-layer="312" to-port="1"/>
		<edge from-layer="312" from-port="2" to-layer="314" to-port="0"/>
		<edge from-layer="313" from-port="0" to-layer="314" to-port="1"/>
		<edge from-layer="314" from-port="2" to-layer="321" to-port="0"/>
		<edge from-layer="315" from-port="0" to-layer="316" to-port="1"/>
		<edge from-layer="316" from-port="2" to-layer="319" to-port="0"/>
		<edge from-layer="317" from-port="0" to-layer="319" to-port="1"/>
		<edge from-layer="318" from-port="0" to-layer="319" to-port="2"/>
		<edge from-layer="319" from-port="3" to-layer="320" to-port="0"/>
		<edge from-layer="320" from-port="1" to-layer="321" to-port="1"/>
		<edge from-layer="321" from-port="2" to-layer="322" to-port="1"/>
		<edge from-layer="322" from-port="2" to-layer="324" to-port="0"/>
		<edge from-layer="322" from-port="2" to-layer="410" to-port="0"/>
		<edge from-layer="322" from-port="2" to-layer="337" to-port="0"/>
		<edge from-layer="322" from-port="2" to-layer="383" to-port="0"/>
		<edge from-layer="322" from-port="2" to-layer="392" to-port="0"/>
		<edge from-layer="322" from-port="2" to-layer="399" to-port="0"/>
		<edge from-layer="323" from-port="0" to-layer="324" to-port="1"/>
		<edge from-layer="324" from-port="2" to-layer="326" to-port="0"/>
		<edge from-layer="325" from-port="0" to-layer="326" to-port="1"/>
		<edge from-layer="326" from-port="2" to-layer="328" to-port="0"/>
		<edge from-layer="326" from-port="2" to-layer="401" to-port="0"/>
		<edge from-layer="327" from-port="0" to-layer="328" to-port="1"/>
		<edge from-layer="328" from-port="2" to-layer="329" to-port="0"/>
		<edge from-layer="329" from-port="1" to-layer="331" to-port="0"/>
		<edge from-layer="330" from-port="0" to-layer="331" to-port="1"/>
		<edge from-layer="331" from-port="2" to-layer="333" to-port="0"/>
		<edge from-layer="332" from-port="0" to-layer="333" to-port="1"/>
		<edge from-layer="333" from-port="2" to-layer="334" to-port="0"/>
		<edge from-layer="334" from-port="1" to-layer="336" to-port="1"/>
		<edge from-layer="335" from-port="0" to-layer="336" to-port="2"/>
		<edge from-layer="336" from-port="3" to-layer="345" to-port="0"/>
		<edge from-layer="336" from-port="3" to-layer="354" to-port="0"/>
		<edge from-layer="337" from-port="1" to-layer="341" to-port="0"/>
		<edge from-layer="338" from-port="0" to-layer="341" to-port="1"/>
		<edge from-layer="339" from-port="0" to-layer="341" to-port="2"/>
		<edge from-layer="340" from-port="0" to-layer="341" to-port="3"/>
		<edge from-layer="341" from-port="4" to-layer="343" to-port="0"/>
		<edge from-layer="342" from-port="0" to-layer="343" to-port="1"/>
		<edge from-layer="343" from-port="2" to-layer="352" to-port="0"/>
		<edge from-layer="344" from-port="0" to-layer="352" to-port="1"/>
		<edge from-layer="345" from-port="1" to-layer="349" to-port="0"/>
		<edge from-layer="346" from-port="0" to-layer="349" to-port="1"/>
		<edge from-layer="347" from-port="0" to-layer="349" to-port="2"/>
		<edge from-layer="348" from-port="0" to-layer="349" to-port="3"/>
		<edge from-layer="349" from-port="4" to-layer="351" to-port="0"/>
		<edge from-layer="350" from-port="0" to-layer="351" to-port="1"/>
		<edge from-layer="351" from-port="2" to-layer="352" to-port="2"/>
		<edge from-layer="352" from-port="3" to-layer="353" to-port="0"/>
		<edge from-layer="353" from-port="1" to-layer="354" to-port="1"/>
		<edge from-layer="354" from-port="2" to-layer="357" to-port="0"/>
		<edge from-layer="355" from-port="0" to-layer="357" to-port="1"/>
		<edge from-layer="356" from-port="0" to-layer="357" to-port="2"/>
		<edge from-layer="357" from-port="4" to-layer="365" to-port="0"/>
		<edge from-layer="357" from-port="3" to-layer="361" to-port="0"/>
		<edge from-layer="358" from-port="0" to-layer="361" to-port="1"/>
		<edge from-layer="359" from-port="0" to-layer="361" to-port="2"/>
		<edge from-layer="360" from-port="0" to-layer="361" to-port="3"/>
		<edge from-layer="361" from-port="4" to-layer="368" to-port="0"/>
		<edge from-layer="361" from-port="4" to-layer="376" to-port="0"/>
		<edge from-layer="362" from-port="0" to-layer="365" to-port="1"/>
		<edge from-layer="363" from-port="0" to-layer="365" to-port="2"/>
		<edge from-layer="364" from-port="0" to-layer="365" to-port="3"/>
		<edge from-layer="365" from-port="4" to-layer="367" to-port="0"/>
		<edge from-layer="365" from-port="4" to-layer="375" to-port="0"/>
		<edge from-layer="366" from-port="0" to-layer="367" to-port="1"/>
		<edge from-layer="367" from-port="2" to-layer="368" to-port="1"/>
		<edge from-layer="368" from-port="2" to-layer="370" to-port="0"/>
		<edge from-layer="369" from-port="0" to-layer="370" to-port="1"/>
		<edge from-layer="370" from-port="2" to-layer="373" to-port="0"/>
		<edge from-layer="371" from-port="0" to-layer="373" to-port="1"/>
		<edge from-layer="372" from-port="0" to-layer="373" to-port="2"/>
		<edge from-layer="373" from-port="3" to-layer="382" to-port="0"/>
		<edge from-layer="373" from-port="4" to-layer="382" to-port="1"/>
		<edge from-layer="374" from-port="0" to-layer="375" to-port="1"/>
		<edge from-layer="375" from-port="2" to-layer="376" to-port="1"/>
		<edge from-layer="376" from-port="2" to-layer="378" to-port="0"/>
		<edge from-layer="377" from-port="0" to-layer="378" to-port="1"/>
		<edge from-layer="378" from-port="2" to-layer="381" to-port="0"/>
		<edge from-layer="379" from-port="0" to-layer="381" to-port="1"/>
		<edge from-layer="380" from-port="0" to-layer="381" to-port="2"/>
		<edge from-layer="381" from-port="3" to-layer="382" to-port="2"/>
		<edge from-layer="381" from-port="4" to-layer="382" to-port="3"/>
		<edge from-layer="382" from-port="4" to-layer="428" to-port="0"/>
		<edge from-layer="383" from-port="1" to-layer="387" to-port="0"/>
		<edge from-layer="384" from-port="0" to-layer="387" to-port="1"/>
		<edge from-layer="385" from-port="0" to-layer="387" to-port="2"/>
		<edge from-layer="386" from-port="0" to-layer="387" to-port="3"/>
		<edge from-layer="387" from-port="4" to-layer="389" to-port="0"/>
		<edge from-layer="388" from-port="0" to-layer="389" to-port="1"/>
		<edge from-layer="389" from-port="2" to-layer="391" to-port="0"/>
		<edge from-layer="390" from-port="0" to-layer="391" to-port="1"/>
		<edge from-layer="391" from-port="2" to-layer="397" to-port="0"/>
		<edge from-layer="392" from-port="1" to-layer="396" to-port="0"/>
		<edge from-layer="393" from-port="0" to-layer="396" to-port="1"/>
		<edge from-layer="394" from-port="0" to-layer="396" to-port="2"/>
		<edge from-layer="395" from-port="0" to-layer="396" to-port="3"/>
		<edge from-layer="396" from-port="4" to-layer="397" to-port="1"/>
		<edge from-layer="397" from-port="2" to-layer="398" to-port="0"/>
		<edge from-layer="398" from-port="1" to-layer="399" to-port="1"/>
		<edge from-layer="399" from-port="2" to-layer="409" to-port="0"/>
		<edge from-layer="400" from-port="0" to-layer="401" to-port="1"/>
		<edge from-layer="401" from-port="2" to-layer="402" to-port="0"/>
		<edge from-layer="402" from-port="1" to-layer="404" to-port="0"/>
		<edge from-layer="403" from-port="0" to-layer="404" to-port="1"/>
		<edge from-layer="404" from-port="2" to-layer="406" to-port="0"/>
		<edge from-layer="405" from-port="0" to-layer="406" to-port="1"/>
		<edge from-layer="406" from-port="2" to-layer="407" to-port="0"/>
		<edge from-layer="407" from-port="1" to-layer="409" to-port="1"/>
		<edge from-layer="408" from-port="0" to-layer="409" to-port="2"/>
		<edge from-layer="409" from-port="3" to-layer="418" to-port="0"/>
		<edge from-layer="409" from-port="3" to-layer="427" to-port="0"/>
		<edge from-layer="410" from-port="1" to-layer="414" to-port="0"/>
		<edge from-layer="411" from-port="0" to-layer="414" to-port="1"/>
		<edge from-layer="412" from-port="0" to-layer="414" to-port="2"/>
		<edge from-layer="413" from-port="0" to-layer="414" to-port="3"/>
		<edge from-layer="414" from-port="4" to-layer="416" to-port="0"/>
		<edge from-layer="415" from-port="0" to-layer="416" to-port="1"/>
		<edge from-layer="416" from-port="2" to-layer="425" to-port="0"/>
		<edge from-layer="417" from-port="0" to-layer="425" to-port="1"/>
		<edge from-layer="418" from-port="1" to-layer="422" to-port="0"/>
		<edge from-layer="419" from-port="0" to-layer="422" to-port="1"/>
		<edge from-layer="420" from-port="0" to-layer="422" to-port="2"/>
		<edge from-layer="421" from-port="0" to-layer="422" to-port="3"/>
		<edge from-layer="422" from-port="4" to-layer="424" to-port="0"/>
		<edge from-layer="423" from-port="0" to-layer="424" to-port="1"/>
		<edge from-layer="424" from-port="2" to-layer="425" to-port="2"/>
		<edge from-layer="425" from-port="3" to-layer="426" to-port="0"/>
		<edge from-layer="426" from-port="1" to-layer="427" to-port="1"/>
		<edge from-layer="427" from-port="2" to-layer="428" to-port="1"/>
		<edge from-layer="428" from-port="2" to-layer="429" to-port="0"/>
	</edges>
	<meta_data>
		<MO_version value="2021.4.2-3976-0943ed67223-refs/pull/539/head"/>
		<cli_parameters>
			<caffe_parser_path value="DIR"/>
			<data_type value="float"/>
			<disable_nhwc_to_nchw value="False"/>
			<disable_omitting_optional value="False"/>
			<disable_resnet_optimization value="False"/>
			<disable_weights_compression value="False"/>
			<enable_concat_optimization value="False"/>
			<enable_flattening_nested_params value="False"/>
			<enable_ssd_gluoncv value="False"/>
			<extensions value="DIR"/>
			<framework value="tf"/>
			<freeze_placeholder_with_value value="{}"/>
			<generate_deprecated_IR_V7 value="False"/>
			<input_model_is_text value="False"/>
			<input_shape value="[1,416,416,3]"/>
			<k value="DIR\CustomLayersMapping.xml"/>
			<keep_shape_ops value="True"/>
			<legacy_ir_generation value="False"/>
			<legacy_mxnet_model value="False"/>
			<log_level value="ERROR"/>
			<mean_scale_values value="{}"/>
			<mean_values value="()"/>
			<model_name value="saved_model"/>
			<output_dir value="DIR"/>
			<placeholder_data_types value="{}"/>
			<placeholder_shapes value="[  1 416 416   3]"/>
			<progress value="False"/>
			<remove_memory value="False"/>
			<remove_output_softmax value="False"/>
			<reverse_input_channels value="False"/>
			<save_params_from_nd value="False"/>
			<saved_model_dir value="DIR"/>
			<scale_values value="()"/>
			<silent value="False"/>
			<static_shape value="False"/>
			<stream_output value="False"/>
			<transform value=""/>
			<unset unset_cli_parameters="batch, counts, disable_fusing, disable_gfusing, finegrain_fusing, input, input_checkpoint, input_meta_graph, input_model, input_proto, input_symbol, mean_file, mean_file_offsets, move_to_preprocess, nd_prefix_name, output, pretrained_model_name, saved_model_tags, scale, tensorboard_logdir, tensorflow_custom_layer_libraries, tensorflow_custom_operations_config_update, tensorflow_object_detection_api_pipeline_config, tensorflow_use_custom_operations_config, transformations_config"/>
		</cli_parameters>
	</meta_data>
</net>
